data/100349/param_100349/param_0.npy (npy, 11296 bytes, 1 tensors)

array f8 [698, 2]
000000 00 00 00 00 00 00 00 00 00 00 00 00 00 00 00 00
       0.0 0.0
000010 18 eb ba c9 2b 72 a7 3f 48 0d e6 98 cf 2c a0 3f
       0.045792930960905476 0.031591880239853654
000020 eb 4a 47 fd 4d 4c b8 3f a3 c6 74 cb c7 91 ab 3f
       0.09491431649739084 0.053846591554600275
000030 98 f5 59 9d 18 9b c1 3f b3 ac e9 95 7c 83 b1 3f
       0.13754565890478143 0.06841257724743137
000040 25 48 2e 4f e1 d2 a2 bf 31 5c a1 57 3d da 95 3f
       -0.03676513759195669 0.02134033057549462
000050 01 e7 87 07 3d 66 a9 3f 12 84 68 50 c9 1d b5 3f
       0.04960814206056164 0.0824857541379205
000060 c9 15 2c d0 38 9d 67 3f 7f 1f 78 aa bd fe ad 3f
       0.002882586444118405 0.058584143695099115
000070 7c 66 28 04 d3 35 bc 3f b9 08 81 6b 9b ff b9 3f
       0.11019629336842657 0.10155650496111236
000080 79 e3 72 39 c6 91 be 3f 70 bb 91 fb ae 7b c1 3f
       0.11941183950956526 0.13658702167182524
000090 df 13 44 74 16 42 a8 bf 73 e7 4c 18 b8 a7 b2 3f
       -0.04737920922529048 0.07287169068595549
0000a0 94 5d 4a 77 48 19 ca 3f 7e 4b 5f 8d a2 03 c9 3f
       0.20389657807093597 0.19542343047086413
0000b0 df ba 50 df 27 23 c2 3f 08 ac e5 5b 99 c7 c5 3f
       0.1416978683859815 0.17015377986112434
0000c0 62 74 01 7f 56 09 b1 3f 10 e4 51 ca f2 b8 c1 3f
       0.0665487346718279 0.13845667723560995
0000d0 13 5a b3 86 4a dd ba 3f c6 a1 de d2 33 3b c7 3f
       0.10493913448895169 0.18149421497697754
0000e0 49 2c f3 41 d6 62 c1 bf 00 bc 41 53 a1 31 b4 3f
       -0.13582876415452663 0.07888229639659983
0000f0 03 f0 d4 0c cb a6 b6 bf 98 44 5d fb 16 a6 b8 3f
       -0.0884825617148977 0.09628432881187832
000100 6d 13 bf c9 e5 99 aa bf 6f c3 e6 28 33 fc be 3f
       -0.05195539558147897 0.12103576420373739
000110 9a 81 ca 12 8d 9c 77 bf a2 14 0a b2 a1 0c ca 3f
       -0.00576453310773708 0.20351048653916332
000120 c8 be ad 4f 57 05 a0 bf 0f ec d8 74 4c c8 c4 3f
       -0.03129074905052459 0.1623626299422942
000130 dd f4 52 ca 6b 50 c4 bf ec 01 cf 85 68 8a bf 3f
       -0.15870425585845896 0.12320569292842948
000140 a8 69 75 5b 3c 63 bf bf b1 85 2c 03 f6 99 c1 3f
       -0.12260796769024884 0.13751101641632382
000150 36 ff d5 47 52 a7 c9 3f 11 6e 2c 75 78 06 d2 3f
       0.2004187441598277 0.2816449302933686
000160 19 06 e3 d2 3a 62 b8 3f 33 8a 06 07 7a 37 cd 3f
       0.0952488674984341 0.2282555136017251
000170 fa 2f 99 42 ab 82 ac 3f 28 09 c2 b7 e6 81 ce 3f
       0.055684425239263605 0.23833927128368626
000180 41 c1 d3 f7 6e 88 b5 3f 68 2c fb e3 98 4b d1 3f
       0.08411305952518423 0.2702390886667616
000190 84 90 b1 09 b7 56 cb bf 54 e1 0d ec c1 68 c9 3f
       -0.21358383153267735 0.19850944543919502
0001a0 d3 8e 5f c3 24 03 d2 bf 9b fe 52 fc 9d 3b cc 3f
       -0.28144187049313735 0.22056937046544509
0001b0 22 f1 42 c0 06 b8 cf 3f c8 55 f2 35 3b 8a d1 3f
       0.24780353915947112 0.27406196850037334
0001c0 e2 63 76 a0 c3 d2 d2 3f d7 79 a4 c6 ad ed d4 3f
       0.29411402387773766 0.3270067634456643
0001d0 6c 74 3d 17 13 fd 95 3f 68 97 55 27 cd 55 cf 3f
       0.021473215383015207 0.24480595036146302
0001e0 d8 42 f4 fd fe 69 d4 bf 0e 05 50 99 c8 3c ce 3f
       -0.3189694862385699 0.23622996793714218
0001f0 6a 3e 4c eb d5 82 c7 bf 07 74 84 41 8b b5 c5 3f
       -0.1836802863040135 0.16960278224078726
000200 f0 ba d5 76 f4 28 b8 bf 88 84 f5 05 38 2e cd 3f
       -0.09437492276422765 0.22797298708886538
000210 da 09 f0 a5 66 0f d5 3f f4 7e a2 bd 70 aa d8 3f
       0.3290650005802981 0.38540285605448266
000220 3b 24 cf 10 1a 82 d2 bf 4b 26 89 c3 0f 15 d0 3f
       -0.2891907848502943 0.25128549666678585
000230 ca 2f f3 2f 35 e5 d5 bf 02 63 63 5e 25 be d0 3f
       -0.34211473162281136 0.26160558908081566
000240 90 c3 ab 56 4a de d4 3f dc bb 3c d8 98 5c db 3f
       0.3260675283809684 0.4275266753856479
000250 15 10 f8 ad 50 b9 cd 3f 70 6e fc af 77 2f d4 3f
       0.2322178697069154 0.3153971880544537
000260 b0 da 2e c7 d5 7d c6 bf 50 1a 5e 45 ff c8 cb 3f
       -0.17571518159612287 0.21707144629563624
000270 32 a1 0e ec a5 50 ca bf 09 74 c6 d3 51 0a d0 3f
       -0.2055861857054509 0.25062986069843923
000280 a1 6a f1 07 6a b0 8b 3f c2 74 cd ae 56 05 d3 3f
       0.013520077102090968 0.2972008425766256
000290 19 68 e0 9b 9b 63 92 bf 55 ab e8 a4 9a 8e d0 3f
       -0.017958098782493524 0.25870386223202974
0002a0 a9 29 5f 8f c7 9a bf bf f9 d9 63 cf ad cb d0 3f
       -0.12345549822126735 0.262431576279965
0002b0 27 4f 95 11 ac 92 c3 3f bf fe e2 55 aa c1 d4 3f
       0.15291357859188645 0.3243203963029195
0002c0 59 a4 fa 05 61 7b 9d bf e8 3b 2e 36 4c 91 d3 3f
       -0.02879096602433537 0.3057432679278791
0002d0 cc 2d c7 3d 5e e7 d4 3f d3 46 92 96 b0 42 dd 3f
       0.3266215899754712 0.45719542221295945
0002e0 13 d6 12 b2 1c e8 d0 bf 9c bf eb a9 65 ed d1 3f
       -0.2641669978141589 0.2801145705589023
0002f0 2c a4 4a 82 ea ad cc 3f 68 71 41 aa 1c 71 d7 3f
       0.22405749666111896 0.36627880693938275
000300 1a 12 62 df bf ae c7 bf 42 6e ac 73 82 1b d3 3f
       -0.18502043158891085 0.2985540513634285
000310 1a 78 2b 3e a2 2f ba bf 35 31 6f df ba 0f d3 3f
       -0.10228933351342598 0.29783508128891195
000320 03 88 ac af 96 2c d7 bf 42 fd 51 75 37 32 d3 3f
       -0.362096473270981 0.2999399800973671
000330 35 05 75 cc 58 73 d5 bf 2f 6a c2 58 f6 e2 d2 3f
       -0.3351652142192337 0.2951026789466224
000340 50 03 a4 d8 4b d1 d6 3f d4 d5 71 e9 d9 6c de 3f
       0.35652443081203433 0.4753937511189552
000350 54 34 8d 53 17 42 c9 3f d3 41 4c 90 3c 0d da 3f
       0.19732944087664583 0.40705789653386865
000360 0c 41 d3 ac b1 ad c2 3f 56 32 b3 08 53 57 d7 3f
       0.14592572153788586 0.36470485543830955
000370 5f 18 9a 34 35 03 d4 3f 58 09 42 7c ea a4 de 3f
       0.31269579064281133 0.4788156712967484
000380 8d 6a c1 e0 b5 de c1 bf d7 95 b1 99 8c 8d d3 3f
       -0.1396090838851091 0.30551447877072974
000390 c8 5c 1e a4 25 e9 cd 3f 6c c3 bb 8b 94 61 da 3f
       0.23367758287051843 0.41220582624287405
0003a0 27 c0 64 1a c5 cc cf bf 0b 14 bb 3a 2e 4e d4 3f
       -0.24843658245799924 0.31727176413943486
0003b0 81 cf c2 03 0e 09 87 bf b9 3f ec 03 3e c5 d8 3f
       -0.011247739305282558 0.3870387113865906
0003c0 d2 4b 96 52 ea da cb bf f5 88 9f 97 fe 24 d4 3f
       -0.2176182654626176 0.31475796515418547
0003d0 ea 76 ec d0 93 e4 d4 3f d5 e2 30 6c 92 5d df 3f
       0.3264512577314763 0.49008617940448335
0003e0 f4 e8 0c 9d 98 af d1 bf e4 35 cf 2a 92 f8 d5 3f
       -0.27634253823238386 0.3432965677319244
0003f0 be 83 50 df 90 bb c3 bf f8 14 93 6f 7c 92 d5 3f
       -0.15416155723599262 0.33706580062819524
000400 6f 7e 49 1f 21 46 d0 3f 95 a4 de d6 c8 10 dc 3f
       0.25428035788897935 0.4385244463288214
000410 25 58 ab fc 79 81 d0 3f 3a e1 b1 cc ff 34 de 3f
       0.2579026191209571 0.47198481549959903
000420 3c 40 ec e4 22 9a d2 3f b7 41 7f 68 ea b3 de 3f
       0.2906577334952123 0.4797311802367647
000430 d6 b2 eb cb 3c 26 d6 bf ec e3 40 5b f4 aa d4 3f
       -0.34608383096819517 0.3229342356822247
000440 38 c3 6a ca 40 4c d7 3f 4a 01 18 b5 8f fb e0 3f
       0.36402911917962255 0.5307081734645547
000450 29 84 ad 33 18 3d d1 3f 46 91 a3 17 5b 53 df 3f
       0.2693539147058482 0.48946263607492246
000460 93 88 8d d2 41 a2 ca 3f e4 05 e0 8d a7 4e dc 3f
       0.20807669430638906 0.44230069022168395
000470 d8 bf 97 b8 ab ea bf bf ab 52 70 c6 8d 91 d7 3f
       -0.12467454201373529 0.3682588994864015
000480 13 cf c5 63 ec 76 d4 3f 67 bb 2b c3 aa 78 e0 3f
       0.3197585081427274 0.5147298633508911
000490 6c 91 bf 54 24 7c d3 3f 7a bb 12 1b 6d a9 df 3f
       0.30445202137186445 0.4947159542452294
0004a0 85 01 ca 18 61 1d d3 bf 51 91 4b a8 b2 0e d6 3f
       -0.29866816922005796 0.3446470874316861
0004b0 2e 69 a8 a7 44 de d2 3f ab 2f 71 78 5b e3 df 3f
       0.294816173294424 0.4982517887299262
0004c0 ff 6c cd 79 e4 08 d9 bf 23 62 72 54 84 3a d6 3f
       -0.39116775412340127 0.34732158896216186
0004d0 22 28 ba 3e 9b 8b cc 3f da da 59 12 ba 5a de 3f
       0.22301045000887237 0.4742875270089094
0004e0 72 92 a4 6c 2f 3f c0 3f 83 ee 33 25 e0 4a db 3f
       0.12692826084925773 0.4264450419720804
0004f0 9e c8 c6 82 46 e6 b5 3f 84 05 cb 07 7f 8a db 3f
       0.08554497425828564 0.430328137979892
000500 da e6 b6 d9 12 94 c5 bf e8 33 98 c6 6d 80 d7 3f
       -0.16858134871090763 0.36721367258070226
000510 f1 ef 3b 4d 3d 9e ca bf e7 92 2b 04 f9 67 d7 3f
       -0.20795408507535698 0.3657209912037573
000520 31 c8 9c fc cc 31 d5 3f 7a d2 e9 eb 7b 3a e1 3f
       0.3311645953100451 0.5383891685183493
000530 45 c7 e0 bb f0 b4 b5 bf 3d 89 60 82 9b 7c d8 3f
       -0.08479218088976122 0.3826054356778917
000540 b9 12 fa a3 a9 90 d2 bf 8b c1 a2 7d 49 0d d7 3f
       -0.2900795079552086 0.3601859785949492
000550 59 18 d9 f9 52 ad a8 bf f7 6e a6 fe 73 1b d9 3f
       -0.0481973581304806 0.392300604516762
000560 88 07 20 77 09 33 d2 3f 2e d4 8c ce 4a 20 e0 3f
       0.28436504967987064 0.5039419206792723
000570 a9 6f 8a ce 3d 0d d3 3f aa c0 ea 24 ef 62 e0 3f
       0.2976831929206534 0.5120769234690858
000580 9e c1 66 83 d7 1e d2 bf 22 f6 39 7a 79 7c d7 3f
       -0.2831324370590894 0.36697232185528794
000590 09 da 2c 61 d3 7e c7 3f 06 14 ac 4f cc 6b de 3f
       0.18355791325457485 0.475329473309387
0005a0 a9 f1 16 1b 00 cd bb 3f c5 cd d1 f7 7b a0 dd 3f
       0.10859680806510731 0.46292018128516715
0005b0 97 9a d0 40 c9 f5 d2 bf 6b eb 6b fe 1b d0 d7 3f
       -0.29625159577919064 0.3720769867501789
0005c0 e7 d5 da 9b 91 64 d6 bf 18 49 e9 00 98 8c d8 3f
       -0.3498882314700879 0.3835811623477112
0005d0 1c 67 ec a6 72 c2 d7 bf b7 40 fb e3 8a 7c d7 3f
       -0.37124315549009324 0.3669764734631928
0005e0 e4 e9 bc 4f 33 6e bb bf 38 5f 87 21 e2 e1 d9 3f
       -0.10715027519919534 0.4044118239812522
0005f0 16 3f 9e 3d 5b 15 d2 3f 2a 58 0f 6b 86 e6 e0 3f
       0.28255349175832245 0.5281402674688753
000600 43 cb 64 e9 62 66 cf bf aa 3a a6 d0 7d 05 d8 3f
       -0.24531208416154912 0.37533517242347136
000610 51 e6 14 c0 04 a5 c7 bf 85 b6 24 06 e6 33 d9 3f
       -0.18472346667276665 0.3937926349634398
000620 44 f2 f0 ca 27 94 ce 3f a6 0a 78 42 d4 28 e0 3f
       0.23889634522665137 0.5049840257855365
000630 2b d3 cf 2e e6 06 d3 3f 31 70 44 3a 28 29 e1 3f
       0.2972960908075943 0.5362740648302006
000640 6d 9b 17 28 fe 9b a0 bf 1e 8b 7b 8e 99 7c db 3f
       -0.03244013060957838 0.4294799701148565
000650 23 8a 57 c9 7e c4 d1 bf 90 36 fa aa f5 52 d9 3f
       -0.2776181188802715 0.39568845459948765
000660 d5 c8 5a 32 83 71 cc bf bc 7c 6a 7d 5c 1f d9 3f
       -0.22221412619325656 0.3925391411557475
000670 5f 47 bb 73 0b 7c a4 3f db 02 ba 2e 06 52 de 3f
       0.04000888622034781 0.4737563568415177
000680 de 79 97 8e c8 70 d3 bf b4 b9 08 03 c5 9a d9 3f
       -0.30375875401469254 0.40007138534829356
000690 a6 32 75 f9 d0 62 c9 bf e4 18 05 e4 85 5b db 3f
       -0.19832813435131874 0.42746112124986113
0006a0 90 06 d7 ce 10 22 d5 bf 4f de a6 bb bf 9d d9 3f
       -0.3302042026444747 0.40025323224424353
0006b0 5c 36 5c ae 25 ca b3 3f d7 42 d1 3a aa 24 df 3f
       0.07730327135888032 0.486612851561444
0006c0 77 3b f5 e2 f2 5b d7 3f 7c 23 ab f8 9f bf e2 3f
       0.3649871078859443 0.5858917099768486
0006d0 ba c2 37 4f b1 d1 b8 bf 1e 3b d7 56 c5 2f dc 3f
       -0.09694965538052261 0.44041570168058
0006e0 b3 91 29 d6 61 b4 d5 3f 21 60 f1 6e a9 fb e2 3f
       0.33913465418143146 0.5932204405644407
0006f0 3c a3 f7 f2 92 63 d2 3f e7 6a e6 d7 00 da e1 3f
       0.28732751586226235 0.5578617302702157
000700 1c 28 cf 31 c8 21 b0 bf 7f b2 a1 06 1c 07 dd 3f
       -0.06301547256512702 0.45355892799015146
000710 c4 9d 84 2f 31 1e 85 3f 93 ef cc 10 84 96 dd 3f
       0.01031149317039038 0.46231176033665483
000720 34 76 9c 73 8a 52 da bf 53 29 3b 54 1b 20 d9 3f
       -0.41128789224771656 0.39258464074796
000730 8e 88 82 6e 23 40 c7 3f f6 96 ae ec cb 3a e1 3f
       0.18164484878531478 0.5384273169226776
000740 69 22 92 98 e5 97 cc 3f 2f 7c 67 03 90 47 e1 3f
       0.22338552427051475 0.5399856630791698
000750 d6 21 c9 c3 9e 32 d8 bf 1a b2 29 80 8b 25 d9 3f
       -0.3780896102876147 0.3929165603247228
000760 4d 01 c4 4f 61 8a d0 bf 34 ad 44 51 e8 a9 db 3f
       -0.2584460524522186 0.43224533020357403
000770 07 04 07 94 e2 0b dc bf 27 a9 14 76 4a 77 d9 3f
       -0.4382254071788911 0.3979059365398307
000780 e1 f7 72 9a 9b 00 bf bf ee 86 92 10 e8 8f dd 3f
       -0.12110302468042235 0.46190835588832513
000790 92 25 21 ea b6 fa d6 bf b4 84 a2 4f 71 5f da 3f
       -0.35905239929396615 0.41207535530891026
0007a0 be 53 c2 17 d9 ab d3 3f 58 f5 f5 99 04 36 e3 3f
       0.3073637706777922 0.6003439909979233
0007b0 da 57 eb 66 9e 2d c1 3f 63 7d 55 11 74 0c e1 3f
       0.13420467400891206 0.5327701891473392
0007c0 11 c6 57 4c ec 49 89 3f 93 1b ca 77 ee 0e e0 3f
       0.012348028259086015 0.5018226947439522
0007d0 c9 5a 85 e0 2d 09 d9 bf 86 80 35 14 3a 88 da 3f
       -0.3911852543437076 0.4145646283486787
0007e0 ac 79 a6 b5 41 86 cd bf 5e 5d 06 8d 08 af dc 3f
       -0.23065968866008058 0.44818319103202053
0007f0 d7 fd 16 5e 8c b8 ac bf 7a 5b 7e e2 88 3b df 3f
       -0.05609549187237988 0.48800871008409497
