data/100349/param_100349/param_8.npy (npy, 6848 bytes, 1 tensors)

array f8 [420, 2]
0.0 0.0 0.20955906230533894 0.18133892627065326 -0.023717308205198507 0.05921706468770596 0.039148911211288565 0.10536565380058636
-0.14593061908972343 0.11226333244693655 -0.08946131561043623 0.07651155856061492 0.2789822126806979 0.2530768085011866 -0.5444152284472975 0.8918806641050384
-0.030284533181476638 0.12071012492211276 -0.08311384091166603 0.14853632057135246 0.036215271897434814 0.16066095239875905 -0.48239313378052906 0.8788165427839306
0.10851559481823829 0.19017801371216425 -0.18218598229148059 0.17183813370555215 -0.562601674088913 0.8019950932691742 -0.6273650431316534 0.5401986927722913
-0.03751410801386246 0.18650717187984975 -0.510006882976187 0.8375978017348054 -0.5786505874758392 0.7321797154931737 -0.6395137873832132 0.49245806697118905
-0.373955419088144 0.9603087516135854 -0.48294215776468735 0.29296059987526857 -0.5972233633993806 0.4569618631273875 -0.5618569800623171 0.3659613775528381
-0.6072230216143866 0.39501915380651287 0.32613019283787675 0.3381091943067529 0.24746662955294282 0.2899754104171934 -0.6060198876913091 0.6318677055819402
0.14732860419008245 0.2610033145614501 -0.5372971814363012 0.7564926191072328 -0.4491093333928439 0.33955244419536973 -0.5506015550983142 0.42187066651929456
-0.12411280003487964 0.1816772394041357 -0.33583777191633385 0.90535461993074 -0.22805254339496112 0.21668369884386127 -0.49531834625171434 0.7870950045835626
-0.525156834040136 0.5280956530233699 -0.4584709989258095 0.8284738938330619 -0.4179089944503994 0.29356333230471904 -0.4864907641912291 0.5021070573939045
0.11110474263170438 0.2874874636969731 -0.5479348078975338 0.6250441235814939 0.2380995865607514 0.3338495269795903 -0.4834929730250773 0.7360623707616433
-0.2615949762574961 0.2532259147169053 -0.32087768919604925 0.2316356351497758 -0.4811329969338694 0.6807622996089004 -0.5343008014984321 0.5746350086071697
0.0014045178345609168 0.22325774629961184 -0.36670854658893326 0.8535965737255163 -0.08679027187659566 0.2142686030253794 -0.37186675645069095 0.2635227780186033
-0.4836872724508361 0.5609530856659901 -0.43959589051249076 0.4171113217045927 0.27836441041490234 0.36130367961177945 0.06854474426326997 0.2975998816483582
-0.10291552286281606 0.27574641390457366 -0.43725918874092184 0.7661747266300253 -0.3033163493141427 0.28988632439641954 -0.4924558660688722 0.6204750278210225
-0.4139326197131929 0.3800247377132008 0.151021094821306 0.31874566274162375 -0.39412890259850186 0.42916168037687596 -0.22432548745408332 0.9851868320224252
0.04655094000420956 0.3529979075376943 -0.19781643868590423 0.33174946995320403 -0.3998706538588245 0.6301726806221378 -0.39022359753165564 0.6837705828707062
-0.40527271233423917 0.5763037958470979 -0.14595088393014935 0.29914673193621694 -0.3757740656129922 0.7536914810225862 -0.30041507025879066 0.408379349636971
-0.3369163591069743 0.5081564127615438 0.27053071276971835 0.41309094364442905 -0.169320770176327 0.9928713482662582 -0.2460508270416915 0.37613386936002763
0.30911674916023696 0.4394030199451902 -0.05829762105320459 1.038855389119465 0.19052623603974053 0.349598150774346 0.10480640444101949 0.33842226423917554
-0.22225735320471593 0.9317432460685603 -0.2989484630725671 0.8110206910986514 -0.3178755595705763 0.6161352841843626 -0.29041684726769607 0.4743142994248964
-0.20909524556594117 0.42184295934433796 -0.2587645083356675 0.4355658192969161 -0.3137929161659151 0.6757703666011098 0.4248468113316573 0.8198563867556243
0.427060623762487 0.6545763218616669 0.349119978743008 0.5170548088455775 -0.25887406732971235 0.8527734021755862 -0.306632305428313 0.7259651835139185
-0.14990554862950692 0.3548031154030322 -0.28625109269546156 0.5770313319649887 0.36166413667361225 0.8229533494728414 0.39239202465439 0.6194135640028684
0.37889167884614555 0.5911100764499858 -0.23101689736863162 0.47494251525863473 0.39855786868828036 0.7190202875552288 0.3190265887739608 0.9058903603479419
-0.11865586257150454 0.968964142424769 -0.03653581618702943 0.3736614323783432 -0.30617704747589974 0.7701165672461724 -0.07159521934946907 0.4059652573996668
-0.11987590725274676 0.4395538736803367 0.41933252943206334 0.6872762045218482 0.37982955513120764 0.7575901263259852 0.12640874422565512 0.42067614074467535
-0.14006985453924117 0.49137660222209545 -0.20962443068388162 0.7226469477208592 -0.23133057681222946 0.6097924280380768 -0.21826474091184 0.5595566874577024
0.4049279078913472 0.6783380659007123 -0.06045468486897947 0.9887564252604328 0.09609691330296974 0.3824561794864209 0.011597067915974407 0.39058737558051587
-0.2139145000547881 0.8311403968634855 -0.16518477475172788 0.5488455617077316 -0.23424528396959723 0.6653643777768897 0.34089007716456055 0.6861281904895644
0.3839672281955714 0.6877581061058409 0.2864249898227462 0.9134455210143861 0.38116397841251565 0.6217127000840692 -0.21293057700707066 0.7763505033127667
0.28724248297588517 0.8821928493430117 0.30902928512871425 0.7244152777716442 0.36904867112097506 0.6499320874930986 0.3717621474975241 0.6310019679207595
00000000: 0000 0000 0000 0000 0000 0000 0000 0000
00000010: 1847 97d3 d4d2 ca3f bf7f e92a 1d36 c73f
00000020: cda6 5c9c 5949 98bf e4ca 65f8 b251 ae3f
00000030: fa29 a77a 530b a43f 17f7 3155 3ef9 ba3f
00000040: c2d9 3cc2 daad c2bf 194a 662d 4abd bc3f
00000050: 2fd0 cdd0 efe6 b6bf 14a9 c8f1 4296 b33f
00000060: ae46 e835 d8da d13f a9df f811 6932 d03f
00000070: 3104 347c d96b e1bf 4382 8851 498a ec3f
00000080: e734 5b9e e802 9fbf 1128 d6d6 dbe6 be3f
00000090: 5d80 8fdc f246 b5bf fca1 8ff7 3c03 c33f
000000a0: 1499 d4e0 ce8a a23f 4200 26c0 8990 c43f
000000b0: b2bf 5973 87df debf c31a cede 431f ec3f
000000c0: 9bae d992 adc7 bb3f 20ef a7ce c057 c83f
000000d0: 3ea3 ddc9 de51 c7bf 714a 3cbe cafe c53f
000000e0: 1c60 dc39 d500 e2bf 2698 249d f1a9 e93f
000000f0: 3bee dcda 5f13 e4bf f090 d9c4 4e49 e13f
00000100: f0c5 1d96 0c35 a3bf 83c1 d88d 77df c73f
00000110: 90c3 63f4 f951 e0bf 20e1 b4e7 99cd ea3f
00000120: 28a3 a03c 4e84 e2bf face 9a27 046e e73f
00000130: 2bdd 449e e576 e4bf 87ba 12d7 6e84 df3f
00000140: bc50 c9b5 e2ee d7bf 23c6 476b d9ba ee3f
00000150: 5560 5d39 86e8 debf c2c5 ded0 ddbf d23f
00000160: 8aa3 c62b 741c e3bf d8af 69f8 dc3e dd3f
00000170: 07b4 4c7d bbfa e1bf 2c11 0c45 e96b d73f
00000180: 74c9 66f9 5e6e e3bf d01f b96a fe47 d93f
00000190: c784 1e2c 51df d43f fc8f 01bf 94a3 d53f
000001a0: 8fff 638c fcac cf3f 9bb4 1806 f58e d23f
000001b0: 3383 cbd1 8364 e3bf 88ef 5b9f 4238 e43f
000001c0: 7580 61e8 a9db c23f 0c19 0c3f 47b4 d03f
000001d0: 800f d0db 8931 e1bf f063 5702 3035 e83f
000001e0: 3f0a d012 35be dcbf 8124 c62c 3abb d53f
000001f0: 9fc4 0827 879e e1bf d7e4 f5d2 edff da3f
00000200: 0d30 2a41 dbc5 bfbf af8b d524 3341 c73f
00000210: 2b19 c9b5 5d7e d5bf 3b52 7c40 aaf8 ec3f
00000220: 4653 d363 d330 cdbf 532b 0e9c 4abc cb3f
00000230: 7ca2 90b8 4bb3 dfbf ff00 f1dc e12f e93f
00000240: 2425 6fb4 15ce e0bf f7a4 dcda 28e6 e03f
00000250: 5b40 a3be 9657 ddbf f349 f3ae db82 ea3f
00000260: f698 f75d 05bf dabf 576d e3db bdc9 d23f
00000270: dd78 8028 aa22 dfbf a91f d3d1 4211 e03f
00000280: 6b9e 0844 5c71 bc3f c4a9 a5d1 3166 d23f
00000290: 8351 0894 ae88 e1bf 2cdd aa88 5c00 e43f
000002a0: 291a bc18 0c7a ce3f ed64 0a68 ca5d d53f
000002b0: de43 bf82 8cf1 debf 7999 47ac d28d e73f
000002c0: d5b9 f4da f8bd d0bf df5c 8d77 da34 d03f
000002d0: c53c 4793 4289 d4bf 943a c78a 3ca6 cd3f
000002e0: 41e0 b60d e2ca debf 7c70 a504 cec8 e53f
000002f0: 0032 95fe fd18 e1bf d657 23f5 6863 e23f
00000300: 0b2f a18a f902 573f 65be 77b7 b593 cc3f
00000310: a0d7 b01f 2778 d7bf af1e 04c3 a950 eb3f
00000320: 4428 5223 e337 b6bf bbdc 4651 276d cb3f
00000330: 5b38 5b39 aacc d7bf 6fd2 55a4 8edd d03f
00000340: f4bc 2a76 bbf4 debf a6d2 b0e2 53f3 e13f
00000350: db41 4dcd 5622 dcbf cbcd 60af f3b1 da3f
00000360: 888c c6f5 b8d0 d13f fcd9 f677 991f d73f
00000370: c965 ecfa 258c b13f 6748 be5f e00b d33f
00000380: 2350 f2f4 ab58 babf 3267 6d49 d4a5 d13f
00000390: d422 e1f6 0dfc dbbf f3b9 3cdc 8084 e83f
000003a0: e15d 29fa 8869 d3bf f7c6 b55e 7f8d d23f
000003b0: 6f4e df9b 6584 dfbf 3e3b 0f72 eeda e33f
000003c0: f39b 1a3e df7d dabf 168c 0947 5352 d83f
000003d0: 70be a1c3 a854 c33f 4ae5 4d35 5466 d43f
000003e0: 6e69 c46e 6839 d9bf ca90 7a8d 6277 db3f
000003f0: 5424 2394 b2b6 ccbf a38e ff88 a686 ef3f
00000400: 1010 d559 86d5 a73f b392 1b89 8497 d63f
00000410: e731 628f 0c52 c9bf a584 fa20 623b d53f
00000420: da0a 3d15 7b97 d9bf fd59 c3e5 5f2a e43f
00000430: cba8 6165 6cf9 d8bf 77b0 6cd8 72e1 e53f
00000440: 17f4 5bf5 fcef d9bf 912a 77a8 1471 e23f
00000450: 39b1 a6c0 84ae c2bf e1c3 9755 3825 d33f
00000460: 6089 9faa ae0c d8bf 8981 c898 3d1e e83f
00000470: cc2b 7f21 003a d3bf d05c c323 e322 da3f
00000480: a784 f6a1 0990 d5bf 4108 c23c d142 e03f
00000490: 6935 fa0c 6050 d13f a580 4eff 1470 da3f
000004a0: fd6d 3891 4dac c5bf 550c 3e22 9ac5 ef3f
000004b0: e21e a6ef 977e cfbf ad6e f4ca 9312 d83f
000004c0: d97f 129e 91c8 d33f 1568 1bd8 2d1f dc3f
000004d0: d25a b78f 2fd9 adbf cea9 18d4 269f f03f
000004e0: 750b 69e8 2963 c83f 5c58 14ec d05f d63f
000004f0: 8e4b 7caf 97d4 ba3f 5a50 49db b5a8 d53f
00000500: bba6 a7cf ed72 ccbf 6144 4436 d7d0 ed3f
00000510: 4f83 05bc f821 d3bf a1bc 14aa e1f3 e93f
00000520: ad69 23bb 1258 d4bf dc78 ef57 61b7 e33f
00000530: 3938 4e8b 3096 d2bf 7586 035d 2a5b de3f
00000540: 1837 ba0c a2c3 cabf 6fa2 9b9c 79ff da3f
00000550: 97b3 2a03 998f d0bf 51af 4875 4fe0 db3f
00000560: 728a 29e2 2e15 d4bf db0b 052d e99f e53f
00000570: adad 1eae b030 db3f 3e07 1176 433c ea3f
00000580: 1008 1e15 f654 db3f f237 e40a 4af2 e43f
00000590: 3936 c552 fb57 d63f b466 c786 b68b e03f
000005a0: e5ab 3d89 6491 d0bf 00c5 2772 eb49 eb3f
000005b0: 4a8c ed1a dd9f d3bf ea42 2756 1b3b e73f
000005c0: 4924 6de2 1a30 c3bf 2c32 4b20 18b5 d63f
000005d0: b88f 641a f051 d2bf 80d2 7169 0a77 e23f
000005e0: 218d c955 8125 d73f 0cd3 4343 a255 ea3f
000005f0: 6584 4670 f31c d93f 7aea 0265 3cd2 e33f
00000600: 0bba 57e2 c23f d83f 3b0a d6ad 5fea e23f
00000610: ccc5 8231 f691 cdbf 2603 a14a 7565 de3f
00000620: 9a18 e5dc f881 d93f 27ba 86d5 3602 e73f
00000630: a9ab 557f ee6a d43f 1798 eec7 0dfd ec3f
00000640: 0a29 3909 3b60 bebf 14c1 d616 c101 ef3f
00000650: d6d9 4f8f d2b4 a2bf 21db f5a3 11ea d73f
00000660: 1378 6c9d 6798 d3bf 57c3 cd7f cba4 e83f
00000670: 1dea a775 1054 b2bf ac00 f6b3 55fb d93f
00000680: a797 3afd 2fb0 bebf da60 1292 a621 dc3f
00000690: a0d1 031b 58d6 da3f e9b0 b7aa 2afe e53f
000006a0: e0ef 559f 204f d83f b4f6 0aa6 2d3e e83f
000006b0: c655 3067 292e c03f 092d ad9e 5bec da3f
000006c0: f164 331a cfed c1bf 6610 24d9 b672 df3f
000006d0: 0d6d 1d2d f9d4 cabf 707d e07d ec1f e73f
000006e0: 7496 fc86 3d9c cdbf 01b4 f868 6b83 e33f
000006f0: c40a 0b5a 19f0 cbbf 1372 1c6d e3e7 e13f
00000700: e762 68be 56ea d93f 4e9d 1508 f2b4 e53f
00000710: 17f4 cd9c eaf3 aebf 7a82 c683 e4a3 ef3f
00000720: 56ff e1ab ce99 b83f b306 c37b 297a d83f
00000730: 56c6 6d1b 34c0 873f 7d52 1631 62ff d83f
00000740: 8d10 f0e2 8c61 cbbf 5f38 ddbe b398 ea3f
00000750: c88a ad52 c624 c5bf d5dc 4291 2490 e13f
00000760: b121 f2dc bffb cdbf 4534 4f3c aa4a e53f
00000770: 1af9 3c9d 24d1 d53f d685 601b c3f4 e53f
00000780: e67c f547 eb92 d83f 4e12 a949 1d02 e63f
00000790: d8ee 027b c954 d23f 2ce7 ed19 f23a ed3f
000007a0: f57a 6c99 fd64 d83f 4ece 4b08 12e5 e33f
000007b0: e129 4824 4f41 cbbf 62c4 be02 ddd7 e83f
000007c0: 12cf 994b 2e62 d23f 6f2f 967f ec3a ec3f
000007d0: e194 48c4 22c7 d33f 1e10 d8f2 682e e73f
000007e0: c032 4651 7e9e d73f 7fec 8c60 3ecc e43f
000007f0: 4420 5976 f3ca d73f 3ccd fd09 2b31 e43f
