data/100349/param_100349/param_1.npy (npy, 9200 bytes, 1 tensors)

array f8 [567, 2]
000000 00 00 00 00 00 00 00 00 00 00 00 00 00 00 00 00
       0.0 0.0
000010 dd e4 b9 53 8a 48 a7 3f 44 fb 9b 07 8f e8 82 3f
       0.045475313873746016 0.009232633037297718
000020 e8 8a 0a 3a 0c cc b3 3f 65 17 49 8a bd 33 a3 3f
       0.07733227173825308 0.03750412285857755
000030 19 6d 7b ab 5d 80 c6 3f 34 e7 21 b1 c0 31 ad 3f
       0.17579241631651923 0.05702020799885901
000040 78 6a e8 c4 c3 6f bc 3f 32 60 41 dd 54 a6 b0 3f
       0.11108039433785588 0.06503801728956729
000050 12 c3 86 68 cb 3a b8 bf cc f1 a6 1a fc cc a8 3f
       -0.09464713384546666 0.048438909772332644
000060 63 fd 81 5f ec 37 ab bf 5a 10 5d cb 81 64 b1 3f
       -0.05316103616587033 0.06793986525468779
000070 39 60 a3 fd 97 ff c4 bf 6e 54 71 80 b8 08 b9 3f
       -0.16405010113408183 0.09778931747253392
000080 95 3d 05 35 4c 66 c2 3f 73 42 81 f1 16 55 b4 3f
       0.1437468775643366 0.07942336460224357
000090 eb 09 dc 07 a1 06 83 bf b2 48 85 3d 67 56 b5 3f
       -0.009289987614015302 0.08334965946167719
0000a0 0a cd 9c f9 ad 07 b5 bf 6d 5c 88 9c 55 8b b6 3f
       -0.08214843124442353 0.08806357452009346
0000b0 5b cc 65 c0 f8 d7 a0 3f 0a 06 50 0a 19 78 b9 3f
       0.03289773319820518 0.09948879720470685
0000c0 82 ac df ea d0 89 b1 3f 77 da f1 a6 e5 c2 c0 3f
       0.06850915655347659 0.13094778682325955
0000d0 f2 78 e0 7b 81 9a 95 bf 8d 52 c8 b8 ea 25 c8 3f
       -0.021097205339281673 0.1886571314104412
0000e0 ba 90 eb 69 43 fc d0 3f 3c a8 0e 5c 69 b7 b7 3f
       0.26539693206565185 0.09264238831988875
0000f0 08 19 ce 59 e6 90 ba 3f 2d 8e 1d b5 f2 98 c3 3f
       0.10377349560267046 0.1531051048615252
000100 86 53 94 34 9c fa c0 bf 1a 8e 5c b2 b7 5c c5 3f
       -0.13264801566461076 0.16689201554355365
000110 e5 c4 3f c9 48 27 a0 3f 70 a5 70 0e d1 50 c3 3f
       0.03154971558240919 0.15090382771567645
000120 e4 ba 15 94 b5 b4 ad 3f e2 81 c7 16 12 48 c6 3f
       0.05801932747532648 0.174074421999662
000130 52 ad ca 4f 44 56 cd 3f 62 5c 38 ec 55 06 c0 3f
       0.22919515510634852 0.12519334825694545
000140 46 fb 1c 02 de 96 c9 3f fe f6 66 f9 d4 69 c4 3f
       0.19991660216506996 0.1594797342094622
000150 12 55 86 fe 2c b7 ce 3f 78 04 e9 c1 f3 5a c5 3f
       0.23996508052793125 0.16683814018509557
000160 f5 f3 55 2a dd ba d1 3f ad 36 c2 92 5a 58 c2 3f
       0.2770302689967246 0.14332134405087996
000170 b4 d5 77 1c 5f 71 c0 3f d9 d8 1f 3a c6 23 c8 3f
       0.12845982446712656 0.18859174573999019
000180 04 d0 84 0f 8a f3 d5 3f f1 82 8f 33 53 5f bf 3f
       0.3429894591856739 0.12254829415133962
000190 9b 1b 5b 0a a2 ce 62 bf 4c bf 27 69 9d ce cc 3f
       -0.0022957959034530357 0.22505538591894447
0001a0 47 f4 b4 6f 9b 62 cb 3f 37 cc 29 53 41 43 c9 3f
       0.21394675211368705 0.19736496506411225
0001b0 a4 79 bb e2 d6 59 c5 bf e7 78 ea 3b 59 0d c8 3f
       -0.16680418082155513 0.18790736604291355
0001c0 20 13 43 c8 da b0 d3 3f 00 fa 4d ca 0d 00 ca 3f
       0.3076693492587754 0.20312664392618274
0001d0 11 73 c8 b7 cc a7 d7 3f ef 74 31 1c 50 7e c7 3f
       0.3696166796451488 0.18354226471539145
0001e0 78 d6 77 d4 cb 67 dc 3f 1c 39 04 7c af 9a c3 3f
       0.4438352179416607 0.15315812640660276
0001f0 a1 d6 30 d3 ce ed d9 3f 9d d0 2e 9b c6 c3 c9 3f
       0.4051396429452812 0.2012871034363614
000200 35 2d 77 14 55 78 c1 bf c8 6d 89 e8 e4 c3 cb 3f
       -0.13648475169461852 0.21691571573579282
000210 d0 05 69 53 a7 9b b9 3f c2 95 d7 6e 05 83 d1 3f
       0.10003133570082601 0.27362190079142235
000220 51 be a9 df 9b be 98 bf 61 71 dd f6 d1 ce d0 3f
       -0.024164615179357366 0.2626233015814901
000230 17 f1 d7 4f 96 15 c5 3f 44 03 96 57 b8 48 d0 3f
       0.16472128771409508 0.2544384818393619
000240 55 d8 3e b9 db 8d c6 bf 90 ac 60 8e 7d 22 cd 3f
       -0.17620417161168925 0.22761506511719576
000250 75 f3 5e 13 e5 fc 9d bf 88 2f 4e 30 00 53 d5 3f
       -0.029285029704385807 0.3331909629566714
000260 c0 db bf e3 c7 f7 2b 3f 62 66 d1 6c 32 43 d3 3f
       0.00021337809619101193 0.30097637774233565
000270 00 a8 14 63 e7 a2 ca 3f 8d 98 b4 61 a1 37 ce 3f
       0.20809643114017717 0.23607270499013958
000280 c4 cf 15 5b eb ee d7 3f 81 7e bf 79 0f c5 cb 3f
       0.37395748038329324 0.21695130772330987
000290 58 98 e7 09 7c 5e a4 3f 01 c0 20 8d 71 88 d3 3f
       0.039783359726968726 0.30520285398506536
0002a0 21 0f 33 1d 7e 83 b3 3f ee a7 3b 57 f9 a4 d3 3f
       0.07622516835095584 0.30694421309328745
0002b0 6a 61 ae 61 02 fe bf bf 0d 29 25 bc fd 1e d2 3f
       -0.12496962437433515 0.2831415498118453
0002c0 6a 18 c8 55 64 50 b4 bf 9e cf 70 89 5c 40 d1 3f
       -0.07935168356206793 0.2695533125108741
0002d0 12 bc c7 fe 8a e5 d1 3f d4 14 23 58 20 b9 cd 3f
       0.2796351898277304 0.23221210769239653
0002e0 3e 81 95 e8 96 12 d7 3f 69 c9 fe 3f 92 ce cf 3f
       0.36050961221009803 0.24849155545013993
0002f0 e0 86 e8 d2 2b 93 ce 3f 19 29 37 97 00 0e d3 3f
       0.2388663081956599 0.29772963301788163
000300 d1 e0 58 cd ae eb de 3f ab 89 d9 53 f5 d0 cb 3f
       0.48313493779597844 0.21731440157152568
000310 bd 5f 55 49 92 89 d1 3f 72 f0 2d a4 b5 af d1 3f
       0.2740216938159355 0.2763494590105956
000320 cf 72 3e a7 8a 06 bb bf e4 95 cd fd 57 f6 d4 3f
       -0.10556856711486805 0.32753562722640894
000330 b7 60 03 09 a6 7c cb bf 77 d9 a7 c5 de 4d d5 3f
       -0.21474147262666118 0.33287782003699057
000340 24 2f 32 20 6e 2a c5 3f 20 ff 24 df 33 70 d3 3f
       0.1653573662955462 0.3037233046670611
000350 0a 88 34 42 88 0d da 3f 7b a5 82 87 5b e3 ce 3f
       0.40707594361640587 0.24131340138164234
000360 d3 19 a2 1c ba 74 c2 3f b7 2d d9 c9 38 37 d6 3f
       0.14418722532373227 0.34712047302010823
000370 95 40 d2 4e b2 45 90 3f c2 f1 f8 a9 2c 38 d6 3f
       0.015890871106024013 0.3471786174666499
000380 e6 cf 73 a8 bf a0 c7 3f 89 e2 d4 13 1c 01 d6 3f
       0.18459315991606146 0.3438177293460645
000390 49 cc 3a 0e cb 9d ac 3f 0d 5b 47 32 33 54 d6 3f
       0.05589136646940369 0.3488891592982533
0003a0 3d 5d 18 d2 05 da b8 3f c6 b5 cc 1f c6 2b d6 3f
       0.09707676295544317 0.34642174821314276
0003b0 23 c1 78 46 87 cf b2 bf 71 b1 e4 5e a6 63 d5 3f
       -0.07347913237095276 0.33420714632918364
0003c0 eb 7b 7f 31 5d 83 d5 3f c7 d9 b4 48 8f d9 d4 3f
       0.3361428244951969 0.3257787904762179
0003d0 e5 6a be 55 2c c2 d8 3f 3a 92 1a f0 7b 4e d4 3f
       0.38685139058513435 0.31729029128681285
0003e0 60 6c 3c 0d 42 48 ca bf dc 3f 3c 14 f1 9e d7 3f
       -0.2053301396016165 0.3690760324107012
0003f0 1c 70 de f3 32 5f b3 3f 65 93 69 5d e5 ba d8 3f
       0.0756713719733288 0.3864072239141961
000400 48 6a 3b f4 5c 47 d2 3f 7b 7b c0 65 bd 2b d4 3f
       0.28560565806188665 0.3151696675940269
000410 9f 65 2b 70 e6 ae 98 3f f2 2f b7 f3 3a 44 d9 3f
       0.024104691120418683 0.394789445880405
000420 7d 90 3f f9 0c 81 c3 3f 69 d9 82 e5 04 81 d8 3f
       0.15237581415488313 0.3828747025794628
000430 20 41 90 23 25 8c cf 3f 25 fa 4e 51 93 39 d5 3f
       0.24646438824175565 0.3316391271618236
000440 74 ce 86 bb e6 9b db 3f ba 1f ee bb b2 50 d3 3f
       0.43139046013968785 0.30180042603069135
000450 36 c0 37 86 20 0b bc bf 3a 15 98 65 80 96 d7 3f
       -0.10954478527833164 0.36856088563247946
000460 a7 8e 18 3d cc 89 d4 3f 7e 9d 72 26 94 23 d7 3f
       0.3209105106964025 0.36154655222568255
000470 62 d3 2d 1e 63 4a c7 3f fe 1f 5a 9e d4 10 d9 3f
       0.18195761655411063 0.39165225471560905
000480 fa 7f cd f6 b7 96 cc bf 3a 2e 1d ea c3 7c d9 3f
       -0.22334956694521663 0.39824006903356557
000490 de 92 ca 38 b2 80 b0 3f 4f 40 4f 9a f3 43 db 3f
       0.06446374784952577 0.4260224348954624
0004a0 8e 4a f5 51 44 a5 ba 3f d1 29 d9 87 ef 87 da 3f
       0.10408427239353044 0.4145468546527385
0004b0 3c 95 bd 9d f3 e9 cf 3f 2c 68 9a 8a 35 ab d7 3f
       0.24932713701415732 0.3698247769876868
0004c0 89 f6 82 1c 46 1b c7 bf 5a 79 0f 81 96 e9 d9 3f
       -0.18051983253637996 0.40488207439002155
0004d0 4f cb 39 53 8a ec bf bf da c5 4b fc 15 35 da 3f
       -0.12470306903723592 0.40949010504036
0004e0 60 d5 b2 2f ee 06 97 3f 67 64 21 42 9f 12 dc 3f
       0.022487374936379978 0.4386366029553472
0004f0 97 dc 76 71 e0 8c cc 3f 99 f4 df 3e 5e ad d8 3f
       0.22304921665429298 0.3855815519344304
000500 d3 03 9a 3b 87 07 e0 3f ca ca 73 9f 7d 29 d4 3f
       0.5009189762205274 0.31503239223017643
000510 d9 d5 4e aa 52 02 b7 bf 34 82 af e4 a9 9f db 3f
       -0.08987919481190633 0.43162009556366177
000520 f3 df 7e bb be c3 d6 3f 46 18 0a e3 9d 04 d9 3f
       0.3556973296176686 0.3909067837888681
000530 7e 4d ad 27 70 89 cb bf 57 6f 5b 45 a9 b8 db 3f
       -0.21513177811958067 0.4331458260837641
000540 99 34 94 d8 b1 45 dc 3f 0c 9a f8 e8 6e 30 d7 3f
       0.4417538275745954 0.36233113051494636
000550 69 4b 1f c5 ef 1b c7 bf 59 6a 8c 59 1b de dc 3f
       -0.18054005742177573 0.4510563253876732
000560 5f c2 8e 82 2f 22 d0 3f 73 31 61 33 dd e5 da 3f
       0.25208652257700764 0.4202797891382694
000570 d7 c3 78 69 77 48 ad bf f3 34 e7 a5 70 58 dd 3f
       -0.05719350016114049 0.45852295114020974
000580 83 bd 25 48 32 54 ca 3f 36 83 b9 3b 5f 46 db 3f
       0.2056944706232394 0.42617016632543725
000590 c2 2a b3 9c 32 b4 ce bf 77 4c a2 a3 b6 c4 dd 3f
       -0.23987419749604127 0.46513143520241534
0005a0 eb a4 68 d3 f5 1d 89 bf e6 f4 00 57 7c 9c dd 3f
       -0.012264175905402705 0.4626761293073528
0005b0 5d 73 15 98 fe fc ae 3f 85 9a e3 ba d8 29 de 3f
       0.06052394491664501 0.47130411387335186
0005c0 a0 6a 97 bd 3f d4 de 3f 95 9d 0a 80 7e ea d6 3f
       0.48170465006630003 0.3580623865513755
0005d0 3e 67 de 9a 82 58 b6 bf bc 79 ef c3 5e f2 df 3f
       -0.08728805809951454 0.4991681016380445
0005e0 c4 c3 29 a2 af ea 9f 3f e2 bc 15 95 de 38 e1 3f
       0.031168693802502437 0.5381920730414118
0005f0 51 34 84 7c 52 ef c5 3f 9d a6 8a cd 25 6d db 3f
       0.17136603431609612 0.42853684494421335
000600 8c 51 66 90 f0 ce d2 3f 32 97 62 46 e2 29 db 3f
       0.2938805971291678 0.4244313895563777
000610 20 c3 e1 e7 b5 37 a6 bf cb 7b 67 f4 b7 ad df 3f
       -0.04339378791417503 0.4949779402504048
000620 ce df 83 d9 20 a8 ba 3f 9a 2e 5e 02 b5 20 dd 3f
       0.1041279345553214 0.4551212809680948
000630 b5 cf d2 84 dc 91 db 3f 36 84 4b bd dd 09 da 3f
       0.43077767344515944 0.4068521832069253
000640 4e 65 df 4c bd 46 cc bf 39 17 02 db 02 c2 df 3f
       -0.22090879682108738 0.496216501116908
000650 c5 3c 1a d6 3d c8 a2 bf c8 cb df 0b e1 1c e1 3f
       -0.0366839717727259 0.5347752792280227
000660 82 ff 02 33 ed b0 d7 3f 93 f0 2a 26 ed bb db 3f
       0.3701737402116053 0.4333451149684688
000670 85 58 3b 59 1d 13 c4 bf 0b 8c 24 ec d1 6f e0 3f
       -0.1568333326055759 0.5136499035037344
000680 de 47 97 75 28 1f b0 bf 62 8f d3 a9 ee d0 e0 3f
       -0.06297543402550285 0.5255044285699848
000690 4c 72 ef 79 ca 68 ce 3f 15 c4 8d e8 9f d2 df 3f
       0.23757296518205562 0.49723050794915596
0006a0 1f 32 1c c7 43 68 c3 bf 1a d4 f3 34 1d 9a e1 3f
       -0.1516194078652839 0.5500627550342216
0006b0 99 92 11 1b 44 1c bb 3f 84 18 ea 33 71 07 e1 3f
       0.10590005551200433 0.5321584714845504
0006c0 6c d9 16 3d b0 c1 be bf e2 82 09 ba a2 ff e1 3f
       -0.12014295092999355 0.5624555238283302
0006d0 9d 2a fd 27 79 67 d2 3f 94 ad 9b 76 dc 54 dd 3f
       0.2875655069844159 0.45830451567481956
0006e0 be 46 71 8e 09 81 cb bf 2f 45 29 b3 8d e3 e1 3f
       -0.2148754067916822 0.5590275286905689
0006f0 47 42 37 cb af 27 9f bf 6e b8 a3 21 d7 6c e2 3f
       -0.030424830225287882 0.5757861763975265
000700 fa 52 02 23 5c 07 90 3f 0e 5b fb 77 d2 65 e2 3f
       0.015653075825485786 0.5749294608493487
000710 ad 6a c7 97 73 5b a6 3f b5 2e 11 a5 c8 54 e2 3f
       0.04366646983881615 0.572849581143109
000720 3c 17 6f fa 43 4b c1 3f 26 89 37 ce d7 a9 e0 3f
       0.13510942199916964 0.5207327869104901
000730 63 d8 4f 3a a9 2b e0 3f 4b 1e f1 9b 70 7d db 3f
       0.5053297175316057 0.4295312426442918
000740 a4 7e a9 fa e7 0d d3 bf 20 82 f5 b1 dc 8a e2 3f
       -0.2977237651702842 0.5794509387743041
000750 d2 32 59 8f 5e 67 b4 bf 63 00 7f 5b d0 83 e3 3f
       -0.07970229148595401 0.6098405634911724
000760 40 57 9d 6e dc 3f d4 3f dd 19 52 ec 70 2d df 3f
       0.3163977699490381 0.4871485050029188
000770 04 37 2c a8 83 45 c6 bf f2 89 f1 6d 40 67 e2 3f
       -0.17399640761907886 0.5751039645513727
000780 ef 82 c8 26 af 4f ca 3f d2 c0 a1 07 d5 77 e0 3f
       0.20555676835740352 0.5146279477176228
000790 43 7c 56 25 c0 66 d8 3f f3 1f ff 06 73 88 de 3f
       0.3812713970782548 0.47707820590267075
0007a0 b7 7b d7 be e2 16 c1 bf f8 7c e7 63 df 05 e4 3f
       -0.13351091688579483 0.6257168723349471
0007b0 d3 86 f2 be dd 3c cf bf b8 40 74 ac 60 a5 e3 3f
       -0.24404498885728873 0.6139376991505037
0007c0 41 85 e0 52 8a fe 99 bf bb f4 97 31 2b e0 e3 3f
       -0.025385056789791752 0.6211143463730403
0007d0 e2 2f f0 34 64 f9 ca 3f ac 7f 7e af f7 72 e1 3f
       0.2107358225333647 0.5452841212863766
0007e0 11 ce 8f 81 13 5d cf 3f 2e 3b 42 8b 86 ed e0 3f
       0.2450279600740122 0.5289948196312702
0007f0 92 1d 0c 8c 7b d1 dc 3f 03 19 17 1d 07 9d de 3f
       0.4502858035707159 0.4783342155536873
