data/100349/param_100349/param_5.npy (npy, 7776 bytes, 1 tensors)

array f8 [478, 2]
00000000: 0000 0000 0000 0000 0000 0000 0000 0000
00000010: b6f6 cccd adfd b1bf 9f27 949c c3e1 a03f
00000020: 8be3 6178 f937 b83f 1a27 ffb9 4729 a13f
00000030: ab6d c1a4 fbbd b9bf f33b 434f 9e0a c03f
00000040: 0d78 f0a4 d08a b0bf dcc3 e339 5dbd b63f
00000050: 9fa1 1778 561a c2bf 503a bb7a 3594 c33f
00000060: 1c09 d1d5 941b ca3f cf99 faea cdb7 9b3f
00000070: 3a75 2b75 6221 8e3f e5ae 1f28 bc8b b53f
00000080: 4de0 1aea 630b b8bf 1396 8df3 5222 c53f
00000090: f69e bdd3 8a93 c13f 8e08 6299 041e a83f
000000a0: 246b 90ad e888 c1bf a463 6b00 9736 ca3f
000000b0: c8ec 6ffb 88ac cb3f a1eb 982f d95a af3f
000000c0: 7154 b4e8 c58b abbf 4fc8 0a0f 11b1 c13f
000000d0: 1d74 7627 38e3 c13f 87f2 c782 7fee b43f
000000e0: f1d5 24db 3da2 6fbf 6afe 9aef fb45 bf3f
000000f0: 0296 91ea d804 c73f 5b24 8024 b993 b13f
00000100: 22a8 6a34 0020 c03f 47f3 5182 f603 bf3f
00000110: 67f0 4c05 49bc 8cbf 82af 5aef bb7f c53f
00000120: f16b 67b3 2657 c5bf 3b1b 2888 c332 d23f
00000130: 0802 fe2a d0c9 ca3f 0e40 7b4b def3 bb3f
00000140: d195 0f4b 1040 b43f e2e4 fc5d bcc1 c03f
00000150: 1456 d2bb 94c8 aabf 61d2 f511 6e0d c83f
00000160: 38f5 92ae 3923 bebf 7d2d 8400 2793 ce3f
00000170: a318 d154 740a c0bf 68f9 0e7c 3f15 d23f
00000180: 185c 7d06 164e d03f b690 85c4 b573 bc3f
00000190: 080e 8dcf 2075 983f e85d f4b2 63b6 c63f
000001a0: ddf0 ee26 5464 b6bf 3139 0a44 513a cc3f
000001b0: 4c81 cc71 dc43 bc3f 6606 026c 2b50 c43f
000001c0: 1ed2 a26e c085 c33f e501 3a83 c515 c43f
000001d0: 006f 9599 0c11 b6bf 4b2f e492 a30a d13f
000001e0: 0087 f86a 94b5 c8bf 3a0c 8133 09cb d43f
000001f0: 73bc ec6f c6cf c83f b67f 5843 56c5 c33f
00000200: d1f4 0b86 f114 b33f 4887 caab a36c c73f
00000210: 5625 6f91 a3fb a43f 7147 7c28 7c34 cc3f
00000220: c8c3 5a16 49d5 d13f a68e e9eb f337 c23f
00000230: be9c e1f7 2c14 ce3f 6483 4cf2 0c91 c23f
00000240: 57b2 9e8f 8bff d03f 521b 21c5 0c9e c63f
00000250: 365c 12e8 a25c c7bf 709b 7c29 939f d73f
00000260: 1f15 1420 b5f1 84bf 4ee2 db7b bbd9 d03f
00000270: a7b0 c3fe 924e c3bf 044c 8314 884d d63f
00000280: 2080 324e db8c ca3f e146 ae5a ce91 cc3f
00000290: a7a0 9850 888e c53f 4c5f 714b 3c55 ce3f
000002a0: 7f61 01c8 9ba9 c03f 8056 fd61 9672 cf3f
000002b0: cd92 0495 1821 983f 74c2 8009 b1d9 cf3f
000002c0: 67a1 1848 c19a bdbf 41d1 e9fe 0ac5 d43f
000002d0: cf95 74f6 439d cabf dcdf 47b3 8b57 d93f
000002e0: fd5d b410 2277 82bf fbfb f47a dd27 d43f
000002f0: 3b1a 3326 4480 b4bf 5b49 db6a 80ba d53f
00000300: 4146 cd88 84cd cd3f 3944 560b 70cb c83f
00000310: a0c1 7c84 e4aa a6bf 5e4f c7d3 a4fc d43f
00000320: 3d8b 056e c810 d83f 704d 9aaa 00ca cd3f
00000330: 8312 67a0 28bd d43f 54c7 df8d 7d09 cd3f
00000340: b6b8 7eb7 bd33 9f3f 1fd8 3f5f 1f50 d23f
00000350: 56e9 86d7 fe8b bcbf 8fcc e20b f056 d73f
00000360: fbee 96c6 5fe5 ccbf bf76 1a17 aef3 db3f
00000370: 1b4c 6c90 6c8f c2bf e43a 0b98 33bf d83f
00000380: 16e7 2d5d 2b15 c43f 7476 ba92 318d d13f
00000390: 963f e363 c951 c2bf 488e 8867 a350 db3f
000003a0: adc5 4a86 e981 9f3f efa0 6280 4a40 d53f
000003b0: 5040 d9ff 7f2d d23f 0511 f978 1c46 d03f
000003c0: 925e 26ce b2ab ca3f 3557 7b49 e009 d13f
000003d0: 9571 7310 c889 d63f ae3a 21a2 9abd d03f
000003e0: ae5a df60 ff57 ba3f 977e 1197 cc3f d43f
000003f0: c2f4 fcf5 b54e b43f 9c53 df0d d190 d53f
00000400: e09e 4b65 1cdb c13f 3c4b ad87 2ee9 d33f
00000410: f337 159d a4ae ac3f 9fa1 2f43 211a d73f
00000420: cc5f b1aa fb55 cabf 73fb e903 56a1 dd3f
00000430: 4bd7 5690 22e7 cdbf a90e 1d74 db8a de3f
00000440: 1a57 4133 336c c73f f996 600d 0389 d33f
00000450: 6330 0a05 81a2 bbbf 44dd 0ba9 70fa d93f
00000460: 66b8 c0ad 2f79 993f a2a8 9c45 294e d83f
00000470: f934 fcd7 8ba6 a2bf 7136 ddd6 c58a d93f
00000480: fcb7 cb67 f17b b2bf ed7b 509e 8b10 db3f
00000490: 9c0e 5482 71b0 d1bf a3af 082e 2f6e e03f
000004a0: 369b 0781 726a d93f 6f18 d0e8 629c d13f
000004b0: 208c 671f db03 d33f 89d3 f157 014e d33f
000004c0: ea2a 8ac6 11a3 c43f 4e95 0aa5 1186 d63f
000004d0: 4701 6022 7f66 c2bf 26da 5e13 5ef8 dd3f
000004e0: f5b4 326a eba8 d2bf 2d25 6bbb b13e e13f
000004f0: a0ea a5f9 a0c4 cbbf 77f7 7248 1feb df3f
00000500: c7b2 6674 931e cfbf b272 fb63 447a e03f
00000510: d4a3 5b05 7b41 da3f fe26 d1d1 928b d43f
00000520: fe28 4514 80c3 d53f 21dc 045f 672b d33f
00000530: 85d6 a7b1 16a5 ca3f fd96 6956 df54 d63f
00000540: 6fbe 6e73 f3fc af3f 07c9 6caa e415 da3f
00000550: 1e79 2873 7f53 d23f 000c f679 e0c3 d53f
00000560: 95c3 5a87 0823 bf3f 5ba7 19d4 b456 d63f
00000570: a85c 7f07 39ce a1bf b6a7 0f0a 5427 dc3f
00000580: 89a7 9d6b f2de c6bf f98f 490d 63bc df3f
00000590: 373b 67d4 8f2f b83f 0129 d62c 5a81 d83f
000005a0: 5868 8049 e6bb 67bf 6aac 91a9 cd71 da3f
000005b0: 4d4e 96e4 08c1 d3bf 591c 14fd 0fd6 e13f
000005c0: 0c4e 20ac edb8 cf3f b8bd cc5c eb59 d63f
000005d0: e2eb 5b38 2159 c03f 291f 2dd1 4464 d83f
000005e0: 70d1 77ac 1cd0 973f 2eb9 75ce 88c8 da3f
000005f0: f872 310a 56c0 cabf ae3c f118 c9d7 e03f
00000600: 8110 9a2f 9a66 c83f 7ef9 513d 9d95 d83f
00000610: 685a 7961 9db3 c33f d6a3 3671 5a8b d93f
00000620: b193 0237 ef0d c03f f329 d416 fb65 da3f
00000630: bb50 9327 d03e d43f 6d91 7fa4 a53c d73f
00000640: 3965 06e3 ef55 cd3f e8a5 f1d2 48aa d83f
00000650: 0f48 9531 b9a1 7c3f a3ae f742 144d dd3f
00000660: 5d40 71e5 d906 c6bf 5736 e33d 4324 e13f
00000670: 700c 9dd6 1030 cebf 8d2a cbec afab e13f
00000680: 7460 de2e 0db3 ba3f 4791 8ff6 a694 db3f
00000690: 8886 2d41 5fbe a2bf 7f9b 9c42 b6a7 de3f
000006a0: f8ef a312 6f0d d73f 4a15 a1c8 8533 d73f
000006b0: 6ead 6b14 93bc c1bf ecfc 338e 796f e03f
000006c0: 05a0 39d3 3953 c63f e69e 90be 71b5 da3f
000006d0: db46 aa7a 288e a83f ee9c b612 d517 de3f
000006e0: 44dc 7a55 1cef c9bf 5aae a1ef 72b9 e13f
000006f0: 6cc2 3264 5dcd db3f 1537 4179 b48a d63f
00000700: 6d31 3cba c1e1 c13f 19a6 a06c 8227 dc3f
00000710: dd61 6904 a7e6 993f 0e7a 53c2 3acc df3f
00000720: 0821 9a44 44d7 d03f 1a8c 02ff be5d da3f
00000730: f6d5 9ddc 39ac c0bf e4ce acb7 83db e13f
00000740: 7036 6c84 f8b3 d53f e097 7f2c 6713 d93f
00000750: 8f3c 1788 59cb a5bf 3fe8 d529 8756 e03f
00000760: cd15 80a1 27ec da3f a618 5d17 ad28 d93f
00000770: a244 6404 9887 b0bf 0ad0 4374 08f8 e03f
00000780: 22cc 1365 add7 ba3f 868b 2fab 951f de3f
00000790: 34e9 6053 1fad c7bf 7591 f9c0 f274 e23f
000007a0: e9a9 b781 a02c d73f 7124 fb24 a5f9 da3f
000007b0: 3ada 03ff fc41 ac3f 50e9 3802 8d18 e03f
000007c0: 7bf8 327d 615c ccbf 19e8 e1e5 e4c1 e23f
000007d0: ed06 4211 0492 dd3f 8651 ec32 6717 d93f
000007e0: 747a d871 ac9d d43f 7aa2 74e5 e536 db3f
000007f0: d7f6 3e11 c147 c3bf 97a5 ccb6 ab84 e23f
0.0 0.0 -0.070277083153054 0.032972443450560045 0.09460410298369319 0.03351806779353535 -0.10055516025879878 0.12532404775853898
-0.06461814905966907 0.08882696784327443 -0.141428764952491 0.1529604768060886 0.20396671715031622 0.027068345515226796 0.014712113571870068 0.0841634366949467
-0.09392380204633462 0.16510998623122983 0.1373151334657831 0.04710401890135173 -0.13699062800227424 0.20479095001681202 0.21620285298545228 0.061239993152830914
-0.05380075898771331 0.13821614489057985 0.13974668433084583 0.08176419203659623 -0.0038615425229646607 0.122161622998641 0.17983542874860353 0.0686603273499186
0.12597658690839447 0.12115421945231929 -0.014031000589618437 0.16796063601702477 -0.16672214279137124 0.2843483762412011 0.20928384875516337 0.10918988554772133
0.07910253365078936 0.1309123476910719 -0.05231156151527841 0.1879098499008647 -0.11772499572812911 0.2388657333870973 -0.12531904355472986 0.28254687419020863
0.25476599344023176 0.11114059493917491 0.023884308498294288 0.17744108427062533 -0.08746839476129105 0.2205297071672674 0.11041047838489709 0.15869658254455316
0.1525192775931296 0.15691441447781 -0.08619765042879735 0.2662743505941207 -0.19304137442764358 0.32489233045288624 0.19384079423022946 0.15445974624981113
0.07453832171082132 0.183002909548174 0.04098235273665789 0.2203517148669181 0.27864291365682137 0.14233254450947647 0.23499071219996454 0.14505159216880792
0.2655972387827083 0.17669829965071898 -0.1825145371592229 0.36911467601242176 -0.010226645509201547 0.263289328533152 -0.15083539428394951 0.3484821510621148
0.20742360418535188 0.2231996481682961 0.16841224608765978 0.23697618182881752 0.13017604127777457 0.24568443092964642 0.023563751311615633 0.2488309189225394
-0.11564262399827428 0.3245265473735977 -0.2079243615527688 0.3959683657444637 -0.00901629079321164 0.31493317611233324 -0.0800821870098866 0.3395081561585777
0.2328344028451728 0.1937084250789967 -0.044272557423371994 0.32792015725612156 0.3760243486814721 0.23272713022434344 0.3240453306610009 0.2268521254296113
0.0304708140608276 0.28614029218386067 -0.1115111614407501 0.36468125496612286 -0.22574994274861368 0.4367480493182078 -0.14500195552736347 0.3866700157931702
0.1568960385300719 0.27424277619306925 -0.14312093140915455 0.4267967711514058 0.030769013234651577 0.332049012542952 0.28402709946840776 0.2542792493225224
0.20836482110893378 0.2662277906032274 0.35215951544321317 0.2615725119875759 0.10290523638773649 0.3163939929272401 0.07932603126114926 0.33696390490268313
0.13949923463882552 0.3111072850198757 0.05601992051616369 0.36096984444750463 -0.2057489951573629 0.46297216779924283 -0.23361618087590794 0.4772251733704516
0.18298950197884595 0.3052375441205722 -0.1079483640007211 0.4059106493800366 0.0248763513374616 0.3797705821804219 -0.03642689715898401 0.39909502013038095
-0.07220371994091573 0.4228848501242613 -0.276394250177171 0.513450231466312 0.39712202644880124 0.2751700662196361 0.29711034838527617 0.3016360625109021
0.1612264842445577 0.3519329177600711 -0.14375294855563878 0.46828414813663455 -0.29156003352075227 0.5389031086462289 -0.21693813505028903 0.4987257201681738
-0.2431206053128305 0.5149251892831528 0.4102466156314766 0.3210188912386086 0.34005739192492956 0.2995241573257222 0.20816310572233845 0.3489302009460145
0.06247673782433771 0.4075862564378813 0.2863463043776323 0.3400803748156136 0.12162831596903197 0.34904213631545183 -0.034776479878638356 0.4399004076245733
-0.17867880110435078 0.49587322518914295 0.09447573600412516 0.3828950345856726 -0.0028972146792627766 0.413196006388438 -0.30865690539323937 0.5573806708279206
0.24783106712912717 0.3492382436988595 0.12772002460391635 0.38111992289894886 0.02325482180272459 0.41848964845748327 -0.20899463174546162 0.5263410079150128
0.19063117336566296 0.3841317271070678 0.15391890773271943 0.3991304498290992 0.12542524515188583 0.4124744151055488 0.31633380760946367 0.36307660164154393
0.22918509087757302 0.38539333915704654 0.0069901689651761375 0.45782953777118446 -0.17208408072702044 0.5356765946141405 -0.235841851035818 0.5522079110026695
0.10429460901502968 0.4309480102367797 -0.036608673769262856 0.47898632531217084 0.3601949388537373 0.36251968949030255 -0.13856733796215387 0.5136077668575161
0.17441485227323042 0.4173244820581047 0.047959580396435185 0.4702046091792472 -0.20260957883667363 0.5538878135971104 0.43440947327602575 0.3522158798340212
0.1397020491934983 0.43991146667630826 0.025293931621804922 0.4968401811328541 0.2631388349477821 0.41197180655780274 -0.13025592109958922 0.5580462062266318
0.33910954410462235 0.3918092665247723 -0.042567060339586786 0.5105624978161883 0.42066374560849057 0.3931076744232861 -0.06456899745195924 0.5302774687575049
0.10485347478588428 0.47067777364116414 -0.1849707753297679 0.5767759102860014 0.36209881465643307 0.421487127413065 0.055190950517431905 0.5029969256786817
-0.22156923878896237 0.5861687173739966 0.4620371025595052 0.3920534131332477 0.32212363355385 0.4252257099892983 -0.15062726347053143 0.5786951608944716
