data/100349/param_100349/param_6.npy (npy, 2096 bytes, 1 tensors)

array f8 [123, 2]
00000000: 32bb 4df3 c34f b83f b9fb c2ef 2fea a93f
00000010: 0000 0000 0000 0000 0000 0000 0000 0000
00000020: 8a3f 0ef5 67bc c13f 26f0 44a3 8454 ad3f
00000030: f5d8 7a96 0765 c83f 564d 0dac b6e6 b03f
00000040: 7544 6f46 63a8 a0bf 6f86 97d5 7d0c a73f
00000050: 69e7 46fa d1ce c33f 3339 3041 3b16 b83f
00000060: 456c b78b 9110 b03f 32a1 0e4f 3a4c 9f3f
00000070: 3086 cfea 0b78 b3bf 92c2 79d7 58eb b13f
00000080: 1af8 3b18 9904 c0bf 5395 0f7f 64fa ac3f
00000090: 8c97 6b4f 2df2 cb3f c6a3 2524 ce27 bf3f
000000a0: f1f8 9e7e feb5 b13f b013 156a 7b7a ae3f
000000b0: e319 5c54 991f a2bf c63c 26a3 4597 b63f
000000c0: 6b8a 7e56 c3a8 c33f 30ea 0f5c 23a5 c33f
000000d0: 4e31 1680 63d9 c1bf 8b63 e326 af3f c43f
000000e0: 6e36 9b51 a66a 6c3f d506 68bf 2346 b03f
000000f0: 9aed c647 7b5e bf3f 9246 09b8 3354 be3f
00000100: abcc a1e1 3021 aa3f 590d aca0 7846 b33f
00000110: 5745 e4c1 f324 bdbf ca05 f22e 0612 bc3f
00000120: 9833 5694 6f7d c4bf 996b 51fe 312b cc3f
00000130: 3602 71f2 8c7c d13f a186 0573 e575 d53f
00000140: af28 b331 218d a93f 3534 cd8c 710b ba3f
00000150: 8cd5 52cf 5c23 c93f f9c1 c268 c08d c93f
00000160: 3d22 6f36 2ef4 7d3f a097 2c7d 4d6f ba3f
00000170: 3470 067b ed93 b83f 6047 c86b 6f4d c43f
00000180: 3fc8 beea a0a3 b4bf b95a 8e05 f1fc c33f
00000190: 1855 c85a 1450 d33f 38b4 5546 b10a e23f
000001a0: 7c11 0177 4ce6 d5bf aa7d b78c bf29 d93f
000001b0: 50ff 984d 10eb a1bf 4b5f aaf4 90b3 c03f
000001c0: d465 0a44 ea40 bcbf 3afd 041d ce3d c93f
000001d0: a724 9f19 ef39 cebf a6d5 fa0c 80f1 d33f
000001e0: c3bd be99 e809 d33f 7acb 0b47 5615 e63f
000001f0: 56b1 92c0 0e18 dabf 2afa efae 9c47 df3f
00000200: 7621 2f81 3383 b03f f368 e3a1 fe8f bf3f
00000210: eee2 2d35 a2a4 64bf 1327 fce2 aa5a c23f
00000220: 8e1e 8c71 cf55 d13f 7eab 2e8c 838d dc3f
00000230: 0fc0 f054 e63a d3bf 251e e63e 413d de3f
00000240: 3b50 8fe4 30fc dcbf 1d8c 8f3a 2529 e33f
00000250: 484b a9bf 1d4b d33f 4af6 1032 e110 ee3f
00000260: 7884 8011 eb65 c53f a69e 07dd 4c86 d73f
00000270: 57b8 f8fe ab80 cd3f da80 f4a6 6c5f e43f
00000280: 99e2 cc1e adf6 c83f 3788 4baf 2bc1 ed3f
00000290: 46ce 2ac4 02f9 e0bf a5cd a70e 2ccd e73f
000002a0: 19d6 2d45 da1a b03f a142 7423 ca43 ca3f
000002b0: b02c 26d1 6e1f 9ebf 9c02 949c 4ff5 c53f
000002c0: e27f 4e4d 09fc a83f 6906 9614 90dc d03f
000002d0: 0f7a ff81 e3eb c4bf f36c 3605 4b75 d23f
000002e0: b7f8 eb6e 9757 bcbf 98e1 4052 6cbe cf3f
000002f0: 9718 bca8 2959 bb3f 9d1f 7213 7154 d43f
00000300: 94bb 7f56 21ed c13f 22ed 9e89 6356 de3f
00000310: 293d 3d14 657e b9bf 0b03 8d5d 1735 d43f
00000320: da6d 4e00 2a05 a13f 5879 453a 1bb2 d43f
00000330: 1dcf 1df0 5ba4 cdbf 20fc 6047 a47d dd3f
00000340: 5e20 0714 27a7 35bf 43e9 b530 d256 d13f
00000350: 97f2 e07f 19f4 aebf adf9 eef9 b5b1 d03f
00000360: 5b7a a491 c03d c5bf 6aee d6a2 84cc da3f
00000370: 1a79 b545 db14 c6bf 39d5 dfe6 2908 e03f
00000380: b700 a77d 4f71 a43f 08da ad88 bc28 df3f
00000390: d4ea dc4c eb60 b6bf e7de becd 55bf d73f
000003a0: 5eae e618 138e 9b3f 1eaf f93a 9d6f e23f
000003b0: 0000 0000 0000 0000 0000 0000 0000 f03f
000003c0: 12fa a65f 0ad8 babf 4964 1328 5b60 e13f
000003d0: ef8d a578 c50b 99bf 4d26 f088 e438 e93f
000003e0: 8696 16f4 702b a1bf e861 9a1d 01d9 e03f
000003f0: cdf1 7e59 c208 abbf 2ee9 8900 5a8b e33f
00000400: e381 2d66 403a 993f 8ddc 03ed 5e8c e53f
00000410: a75e 130e 9b66 c8bf 66af 498a d690 e63f
00000420: 5153 c2ff 54fc b3bf 0425 a1a7 9516 e73f
00000430: bac9 bca5 8a01 cebf 10c9 84cf 81ad ec3f
00000440: 2cb2 0400 72a3 b7bf 131a bdd1 62cb ec3f
00000450: 57da 27c8 f1f9 c63f 3811 fc38 c93c 993f
00000460: 2f5d 6816 572d c6bf 1343 ac1d 2662 bb3f
00000470: 0a05 1d55 1dd8 b73f 6605 8d40 77c9 bb3f
00000480: 54af efe0 6b60 b1bf 56ee d072 7a58 bd3f
00000490: 9510 3acd 5995 d03f cb38 d13d eebc cb3f
000004a0: 7d91 caa7 d78c cfbf ce08 cb66 ece6 cc3f
000004b0: a182 1fc1 4d3c cabf 8771 78f4 8c2f cf3f
000004c0: 3da0 4e59 4bf9 be3f 1c88 54a9 884c cd3f
000004d0: 27db 17c2 aa7c d1bf e8d8 7b73 e511 d93f
000004e0: e543 4cbd 22a5 d13f 635a 1b80 995f ea3f
000004f0: 4133 320f 8fd9 a93f 18e6 e7d0 70a5 c43f
00000500: 07b6 f218 37a3 c83f 9e1a 182a 0579 e73f
00000510: c98e b695 6ab9 d9bf e84f 4253 49be e73f
00000520: 26a8 5871 d544 dfbf cc5d cd53 5a6d e53f
00000530: 0ab4 ca51 2814 b1bf a2cc f701 22ae ca3f
00000540: 2e04 fcf8 7f7f c93f 0844 f975 5dcf e13f
00000550: 9c19 f43d a051 d5bf 7d36 1fdd 56d4 e13f
00000560: 5078 774c bcab d7bf 5627 f750 fb8f e43f
00000570: 62f9 0dca d15f 903f 427f 7b51 2e88 c63f
00000580: 97a6 6f51 1809 d0bf da59 2927 ddfc e13f
00000590: a14a e92a 07ed 4fbf c51f 81a2 cd61 cc3f
000005a0: 9fdd 2947 46c1 c13f 5f68 b3c8 b174 e43f
000005b0: d424 60d1 b9bc c43f 608e c80b 0ba2 ea3f
000005c0: b8fb 7a39 bde2 b73f 8df9 93f3 452a e23f
000005d0: ed1c 743c ceae ba3f 2e59 2de6 4b65 f03f
000005e0: 7b81 d5e6 78ac b33f 3eb1 9c2c 0754 d93f
000005f0: fa94 a07c af8f 95bf 74a8 5bb2 95cf d93f
00000600: f6f5 d504 5040 b4bf e8a4 d390 b673 dd3f
00000610: 0836 16f2 cccf a13f fb82 13be 1a2b ec3f
00000620: 9118 e9f8 b68a d1bf 78f7 4843 014f e93f
00000630: 3757 4521 0d05 d7bf 1580 fe0e bc3a ec3f
00000640: 2aa4 6995 3225 c3bf e9a3 065c add1 e93f
00000650: 7213 c701 c3dd bb3f 42b2 dc90 777e b43f
00000660: ea16 cc6c 1574 b53f 348a 5036 fe5c b43f
00000670: 1d40 9b17 8a14 c83f df35 2d3e c347 d13f
00000680: 308f b49f e0fa a1bf 0b26 8f7b ff00 d53f
00000690: 4bc3 e68f 6130 b23f 9731 77e9 9822 e73f
000006a0: 70a5 b1bf 8894 9a3f c487 83f8 ed92 c13f
000006b0: 8a82 dbee 77c4 c5bf 1812 525f 3b5b d63f
000006c0: 37eb 5853 4571 d1bf 41ae e5e8 4f05 e53f
000006d0: 79dc cb7a a7b4 cabf 2440 f9c2 387b c63f
000006e0: 9fab 5020 b03a d2bf d442 2949 9764 d33f
000006f0: 1c08 1581 bde4 c6bf 2dcc 803a d3f9 e33f
00000700: f19b 056a e110 be3f 3bea 6fe8 ca32 7a3f
00000710: 70ad 1e12 f0d8 b4bf 5be2 34cb 27b7 783f
00000720: ce18 03ab 2a2b c1bf 3747 5b97 e8a2 70bf
00000730: 12a1 2258 0803 c8bf 0ec4 13f5 a251 a43f
00000740: a385 97cd de01 d0bf 8931 f226 d085 be3f
00000750: 110a fe1d 7c44 d4bf 8f54 2d42 9895 ca3f
00000760: 0fda 1d63 5990 d8bf 34a8 9dfc e249 d23f
00000770: 9a82 9bb4 ef49 dbbf 8385 d89f 4eae d83f
00000780: 01f6 1443 0837 dfbf 6481 d36f ceb2 de3f
00000790: ae63 b692 d800 e2bf 78f0 517f a15a e23f
000007a0: bcab c1be bbce e2bf 25eb 910e a68c e53f
0.09496712389021125 0.050614831941394774 0.0 0.0 0.13856219735725644 0.05728544705422704 0.19058317992830323 0.06602040958869301
-0.03253469691083747 0.04501717789004266 0.15474915237956147 0.09408922521126754 0.06275281582877408 0.030564223361268357 -0.07605051500970528 0.06999736080775623
-0.1251403206187554 0.056597843656883605 0.21832815530723015 0.12170112974639755 0.06918325988133113 0.05952821416807497 -0.03539733080656384 0.08824572785509863
0.1535877392135093 0.15347711558554655 -0.1394466758178034 0.1581934871562932 0.003468823281628278 0.0635702459622068 0.12253542425508215 0.11847232096740815
0.05103447679803116 0.07529405520113154 -0.11384509547885578 0.10965002676132155 -0.16007799857143534 0.22006821554063263 0.2732269637672603 0.3353208182580634
0.04990485889136786 0.10173711478746912 0.19639167903157462 0.19963841548225483 0.0073129468136774985 0.10326084428797211 0.09600719693702403 0.1586131359368279
-0.08062177401623759 0.1561566617135293 0.30176266541941876 0.5638052343107409 -0.34218131658078454 0.39317311040755476 -0.03499651858555686 0.1304799265533297
-0.11036552582881792 0.19719864289252503 -0.23614300490433957 0.3116150023227767 0.29747977270286813 0.6901046168917297 -0.40771836095770675 0.4887458523152498
0.0645019712820892 0.12329093410827223 -0.0025199096793894126 0.14339195330858753 0.2708624466763262 0.4461373204200568 -0.30046995444263386 0.47248870031805473
-0.452892516329715 0.5987726348652164 0.3014597293560439 0.9395605066162684 0.1671727977236832 0.3675720365995211 0.23048925351889935 0.6366484890786765
0.19502796176836482 0.9298304008227721 -0.5303968268767185 0.7437954221954227 0.06290973843518834 0.2051937745204855 -0.02941678191704672 0.1715487970868893
0.04879788464245373 0.26346208582263003 -0.16344875190311867 0.2884089995292946 -0.11071154077578425 0.2479987527492653 0.10682926530361879 0.31765391253474623
0.14004914020139536 0.4740227550461943 -0.09958488220330665 0.31574043403456703 0.03324252370586196 0.32337074938359 -0.2315783426707804 0.46079356165495433
-0.00033039764460030495 0.2709241367043839 -0.0604560822107249 0.2608466091877755 -0.16594702826928906 0.418732794783614 -0.172511490857638 0.5009965428604694
0.039926990593359184 0.48686135623521 -0.08741636873757425 0.37105317203848504 0.02690915908321611 0.5761247779714471 0.0 1.0
-0.10485901675472345 0.5430122168282959 -0.02445896672123909 0.788194911439129 -0.03353455524056152 0.5264897897896477 -0.052801202225484546 0.6107606897851718
0.024636274563251247 0.6733851079178678 -0.19063127696312174 0.7051804257330161 -0.07806903118246324 0.7215069078457934 -0.23442204563759877 0.896180062589595
-0.09233772755096287 0.8998273941477372 0.17950269959665618 0.024645942786279934 -0.17325867265820125 0.10696638321338652 0.09314139678919645 0.1085428745837099
-0.06787752381904727 0.11463132193687761 0.25911564866715625 0.21670320528432394 -0.24648566906865801 0.2257972242278527 -0.2049653237327407 0.2436386293128516
0.12099142961835781 0.2288981272513987 -0.2732340712968146 0.39171730306351416 0.2757040833103573 0.824169874390304 0.05048796711444093 0.16129884911042391
0.19248093336266 0.7335229704047668 -0.4019419157068396 0.7419783235695805 -0.48857627934433123 0.6695987355005228 -0.06671382901068071 0.2084391126260004
0.19920348794406223 0.5565631202863424 -0.33310705232761406 0.5571703261172868 -0.369856905626766 0.6425758916241004 0.015990522344048748 0.17603091219552353
-0.25055511429546 0.5621171727059917 -0.0009743008611827372 0.22173471865448682 0.13871077036649823 0.6392449302613946 0.1620094559041606 0.8322806577820749
0.09330351498918688 0.5676603085883457 0.1042298219291415 1.0247305861754046 0.07685046802135347 0.39575366360329045 -0.021055929166455357 0.40329496782090435
-0.0791063319975008 0.4601875700305542 0.03478851752434414 0.8802617752481575 -0.27409147555989316 0.7908941568527856 -0.3596833062086832 0.8821697514395078
-0.1495726804307947 0.8068453595525372 0.10885256570243287 0.08005473410293809 0.08380254656011812 0.07954396081962828 0.18812681343706653 0.27000504562314903
-0.03511716794517239 0.32818591181111917 0.07105073703020286 0.722973304736615 0.025957237911290176 0.13729643473112507 -0.17005824244462914 0.34931835468913297
-0.27253850116146644 0.6568984555028196 -0.20863812919535343 0.1756354286212637 -0.28483203082822145 0.3030145849670991 -0.17885559847678756 0.6242462294234251
0.11744507635522418 0.006396095856866564 -0.0814352077710987 0.006034045643268894 -0.13412984228324948 -0.004061611709134819 -0.1875925474498748 0.03968533746400037
-0.25011415555317223 0.11922932577926394 -0.3166799824613529 0.20769026976873703 -0.3838103740630751 0.28575968427196874 -0.4263877166504614 0.38563886270466
-0.4877339034172508 0.479663476186053 -0.562603270099421 0.5735633360595918 -0.5877360082353031 0.6734190258569909
