data/100349/param_100349/param_3.npy (npy, 4208 bytes, 1 tensors)

array f8 [255, 2]
000000 00 00 00 00 00 00 00 00 00 00 00 00 00 00 00 00
       0.0 0.0
000010 51 ee 66 d7 c1 eb a7 bf 8b 97 2f ec 18 06 85 bf
       -0.04672055963916633 -0.010265536029645769
000020 59 87 0a 27 36 44 a3 3f 68 6c 94 bc ed b9 9c 3f
       0.037629787698519386 0.028053011546131407
000030 3a e8 2e 3a 41 1c 9e 3f 2a 63 c3 af be e2 b3 3f
       0.02940465848562488 0.07767860213369873
000040 eb a9 59 e8 eb d7 9c bf d4 5d 09 8f e9 0b a6 3f
       -0.028167425209554436 0.0430596339326105
000050 58 7d ef 8b 05 58 a0 bf 40 ed 6b fa b8 47 c1 3f
       -0.031921552020998945 0.1350012991677918
000060 3e bb e3 e6 99 66 9e bf 32 65 75 c5 c6 bf ca 3f
       -0.029688267438298548 0.20897755281002045
000070 fe 7d 65 a8 93 c3 66 bf 65 a2 ec b0 07 e2 c9 3f
       -0.002778805154932006 0.2022103895080988
000080 01 4a fa 97 1a 1d a9 3f 1c 25 31 cd 08 fb cf 3f
       0.04905016999432022 0.24984846133364946
000090 52 d7 08 32 09 82 67 3f 86 e5 f8 b5 f8 f0 cd 3f
       0.002869623145921909 0.23391636739124183
0000a0 82 30 7a 75 05 7e aa 3f d2 b9 6b ee 93 70 d2 3f
       0.051742716398707436 0.2881212070778051
0000b0 d9 f6 13 61 a9 1f 93 3f 12 47 73 39 7a 5f d1 3f
       0.01867546706215859 0.2714524804151647
0000c0 77 6a 31 52 57 6f b0 bf d8 42 ef 49 e9 dc be 3f
       -0.06419893032708922 0.12055833869022636
0000d0 72 ad cb 09 f1 ce ad 3f 75 fa eb 54 ff ef c4 3f
       0.058219463773492644 0.1635741390855007
0000e0 34 e9 98 65 54 54 a6 bf ec b9 db 94 da 53 ce 3f
       -0.04361213436318892 0.23693401592704733
0000f0 a8 c6 5e af 16 c6 a3 3f 73 03 6d 93 2b 56 ca 3f
       0.038620671184060484 0.20575470636870427
000100 52 bb b4 f8 be 58 97 bf 0e 33 9b 94 8f 36 d1 3f
       -0.022799476556595373 0.2689551306946648
000110 1d c5 81 e3 56 ad b2 3f 40 1f b8 98 00 95 bc 3f
       0.0729574494778444 0.11164859512802838
000120 56 8e aa 12 d7 81 9b 3f e2 97 3d b3 6f 76 d6 3f
       0.026862488283440143 0.3509787798305962
000130 a7 74 29 b0 f8 4c a5 bf 2e 26 c0 29 46 59 d3 3f
       -0.04160287046827565 0.30232385709004717
000140 32 ac cb 16 d8 fe 88 bf eb d7 dd d3 9a 32 d5 3f
       -0.012204826541582479 0.3312136715898066
000150 1e f4 68 ad 64 3b b4 3f 55 2f b3 7d c7 c2 cb 3f
       0.07903126939432112 0.21688169133846694
000160 0b 7c 2a 16 e2 fd c0 bf 04 8b fc 92 1d 54 9b 3f
       -0.13274789888689073 0.026688062759727252
000170 19 bb f6 4f 81 d3 d1 bf 06 ed ed 2b 64 49 c8 3f
       -0.2785342484375391 0.18973972458830007
000180 09 be ce 55 1b 98 ad bf de 6a 6d be cc 4f d5 3f
       -0.05780110762077235 0.33299559208323426
000190 c1 3e 12 13 77 08 99 3f 27 be a9 3e 0a d5 d8 3f
       0.024446354426401088 0.3880029308265613
0001a0 e8 24 40 52 34 20 b8 bf f5 5f 28 41 34 68 cc 3f
       -0.09424139984197988 0.2219300573494817
0001b0 e5 8c 28 77 95 84 b0 bf ec 25 ce f9 a1 3f d1 3f
       -0.06452306899204847 0.26950883288426897
0001c0 c7 d1 af 88 06 4e c0 3f 70 d7 d5 e8 94 65 bd 3f
       0.12738114999923608 0.11483126339393634
0001d0 eb d9 67 f7 15 51 b9 bf 36 d1 c6 c5 fa 9d c0 3f
       -0.09889352121522392 0.12982115418493273
0001e0 ee 12 15 2b 37 fa a1 bf 57 0c 25 a0 08 4e d7 3f
       -0.03511211777598598 0.3641377986825253
0001f0 f7 9c 75 a5 53 22 be 3f 4d 82 d0 06 c8 63 cd 3f
       0.11771128453766609 0.22960758526552852
000200 7e aa 80 1a 2e 4b b7 bf e0 0a c9 31 c7 79 d3 3f
       -0.09099090716396493 0.30430774556968565
000210 db a0 13 d3 1c 38 b0 bf 0f c0 9c 15 5c fc d6 3f
       -0.0633562102626714 0.3591528140123054
000220 b3 36 41 cc 62 d2 8b bf 3f 2a ad 31 56 4f d9 3f
       -0.013584873064384472 0.3954673276063296
000230 ef 5b 23 cd c1 5e ce bf a6 1d 95 07 49 2b bb 3f
       -0.23726675526151506 0.10612923083419065
000240 73 c6 29 99 fe 1b c2 bf 09 4e 7e 9c ba 14 bc 3f
       -0.1414793250910865 0.1096912986816322
000250 41 b0 0d a6 b0 dc cd bf ee ac 08 d6 2f 87 c3 3f
       -0.23329742534713385 0.15256307555078003
000260 86 0a 17 eb c1 d6 c0 3f a2 06 2a 4a ab 47 d5 3f
       0.13155387858394735 0.33249933474153626
000270 62 20 40 61 0a bd 93 3f 2c bb 73 6f 57 e4 da 3f
       0.01927581995553885 0.42018686183921505
000280 5c 46 89 be d2 e6 cd bf a3 4b f3 9c 6e 5c a8 3f
       -0.23360666564490173 0.047580200823765816
000290 e7 12 b3 a1 e0 83 c5 bf ca ed a7 6c e6 ea af 3f
       -0.16808708091243504 0.06233902050368163
0002a0 b6 33 43 c0 6b c4 bf bf a5 85 63 a4 fb a9 c8 3f
       -0.12409089511784441 0.19268746878428292
0002b0 3b 33 40 da f5 5b cf bf 73 3d 16 d7 c5 e6 d0 3f
       -0.2449939075162549 0.26408525471284533
0002c0 ac ab 1f 45 37 0a aa bf 2f 9b a1 a3 0b 3b d9 3f
       -0.05085919112010315 0.39422884921661966
0002d0 dc 90 96 33 6d 86 ad 3f 94 cf 3e 70 19 59 da 3f
       0.0576662183259786 0.41168819390736044
0002e0 a6 35 cf f5 73 73 a9 3f 5b c8 b3 60 7a a4 dc 3f
       0.04970896125415018 0.447538942752663
0002f0 0f 89 5a bc e2 a2 c7 bf 9b b2 9f e7 cd 26 82 3f
       -0.1846583766646934 0.008863075858209604
000300 3f 8f 3b 70 d6 a5 c8 bf ab ce f3 7c 02 32 bc 3f
       -0.19256096344099125 0.11013808775515581
000310 e8 d7 34 54 6f e1 b6 3f 25 94 f7 69 c6 5c db 3f
       0.08937736326046741 0.42753753994321847
000320 53 7e da 15 ba c0 c4 bf 5c 3e 02 14 41 8f ca 3f
       -0.16213155810418076 0.20749677159300262
000330 1d a7 bd 61 28 08 cf bf 97 62 31 2e b8 cc d2 3f
       -0.2424364545107033 0.2937450839140551
000340 a0 99 98 90 b7 47 98 bf 3b 46 36 d2 0b 4b db 3f
       -0.023711078834958266 0.4264554550983097
000350 29 ed b5 d3 54 44 c0 bf f0 51 2c 5e 1e 20 ce 3f
       -0.1270853074782761 0.23535518263146527
000360 41 6c 30 72 7d e7 c7 3f 3a d7 62 0c 55 77 d4 3f
       0.18675201488153628 0.319783460708425
000370 e2 ac a7 46 cd ae bc 3f ef ef 47 aa 78 99 d8 3f
       0.11204226469969883 0.38436714772228603
000380 4b 95 b1 94 6f f7 8e 3f ff 58 53 f8 b1 ec dc 3f
       0.015120383954306723 0.45194672823471643
000390 88 45 40 bb f5 87 c8 bf 50 8b e1 70 36 91 ce 3f
       -0.19164916651838504 0.2388065386940874
0003a0 e1 a1 c3 a7 b4 a4 c8 bf b8 72 3d 20 55 4b d2 3f
       -0.19252641860590727 0.285847932323843
0003b0 17 e1 c3 f2 b6 ba c1 bf 9a c3 07 e6 7a 38 d3 3f
       -0.13851057866828206 0.30032227004908807
0003c0 48 d3 df 0b 76 6f bb bf 85 95 41 b4 85 e0 d5 3f
       -0.10716951169872602 0.34182875254767736
0003d0 e2 56 e1 1a 61 f6 b0 bf b0 8b b2 51 31 cd db 3f
       -0.06625945001845993 0.4343989656282998
0003e0 db f3 26 e3 ad d4 77 bf e4 33 3a 4c 27 8c de 3f
       -0.0058180611107987125 0.4773042911918408
0003f0 44 5e 0a 45 a1 d3 c4 3f 99 5f 3d e7 52 26 d8 3f
       0.1627084338294812 0.3773391016197763
000400 94 b4 d3 95 7e 2f b3 3f fe 7f d0 1a 65 f5 de 3f
       0.07494345815549003 0.48372771853064467
000410 ee e5 f6 54 4f 37 c5 bf ba 92 96 6c 19 a4 d5 3f
       -0.1657504238954028 0.33814082722009753
000420 23 ff 10 86 79 c1 c1 3f 64 9d fe 7b 41 7b db 3f
       0.13871687933168983 0.42939793690535155
000430 99 99 83 aa bb 52 cb 3f ab 88 93 58 f0 d1 d7 3f
       0.21346231294519383 0.372188650608346
000440 9a be ec 13 9c 31 9e 3f e4 4d 6a 8b 4f f5 de 3f
       0.029486120906936898 0.48372257818956954
000450 e2 ef ca 4c cb 11 c5 3f 78 73 2a 8e f2 14 de 3f
       0.16460553407330197 0.4700285328233842
000460 61 df 75 9a d8 b7 a3 bf 03 d0 0e 97 00 5c e1 3f
       -0.038512009482416294 0.542480750117193
000470 e8 73 d6 cf 2b dd c1 bf 94 24 df ea 66 6b d8 3f
       -0.13956210754704945 0.3815552991550899
000480 96 09 3b 87 08 cf bd 3f df 16 73 49 96 c8 de 3f
       0.11644032765892684 0.48099286244210576
000490 5d 41 0e ab 2d 89 c0 bf cb 28 35 ba 49 02 db 3f
       -0.1291863522751652 0.4220146482881659
0004a0 f9 b2 5b b4 30 f7 b9 bf fe ce 7d 01 4d 8c dd 3f
       -0.10142807391430243 0.4616882814946023
0004b0 24 e0 8a 4c b8 0e b2 3f f5 e5 58 22 26 d3 e1 3f
       0.07053710812294917 0.5570250197262668
0004c0 a6 f7 bd 2e 83 45 7c bf a0 d7 e9 cb c4 56 e2 3f
       -0.006902229721047625 0.5730918867763997
0004d0 20 84 ab 27 d5 e3 ce 3f c3 ba 5b f1 8e 45 da 3f
       0.24132790028582551 0.410495506001933
0004e0 0c c1 b8 9a b1 38 ca bf 9f 40 60 c9 39 a7 dd 3f
       -0.20485515646715446 0.4633316484987606
0004f0 70 29 78 e3 69 21 bd 3f 1f d3 7f 76 ab 7c e2 3f
       0.1137911014886066 0.5777184786262274
000500 0a 9a 92 2c d3 a0 c3 bf ea 10 cb a5 1e b8 dd 3f
       -0.15334548641585882 0.4643627757143479
000510 15 aa 38 07 2a a6 c0 bf ff 56 f6 f8 6a 96 df 3f
       -0.13007092812161206 0.49355577767106235
000520 78 fa 4d 6a 44 9d a1 3f 23 44 c8 ee ed 06 e2 3f
       0.034402978874813195 0.5633458770481677
000530 df 63 28 63 ca 7f a9 bf ee 10 e0 a7 d0 ae e2 3f
       -0.049803089718075226 0.5838397291959418
000540 4a e1 4c 6f 51 e3 cc bf 32 77 d5 8d 85 59 df 3f
       -0.22568719801507547 0.4898389706703369
000550 57 17 42 27 6d 10 c7 3f dd fe 0e 57 6e 81 e0 3f
       0.18018879334357038 0.5157996845591374
000560 e3 78 9a 32 8e 0b c2 3f 4d 82 65 cd fb 5c e0 3f
       0.1409776446425389 0.5113505374575397
000570 2b 3f 8d 4e a1 3c c1 bf d1 a0 a0 bf 3a fd e0 3f
       -0.13466278396162443 0.5309118025516232
000580 28 ae 39 18 e3 f4 c6 bf 26 fd a9 85 94 46 e0 3f
       -0.17934836085201877 0.5086157427430507
000590 54 1e 7f 0c 65 21 b8 bf cb e3 7c 5b 4f ff e1 3f
       -0.09425956301776611 0.5624157702323996
0005a0 d7 e3 5e a0 dc 7d b4 bf 1b 38 68 f0 bf b8 e3 3f
       -0.08004549899386802 0.6163024611903468
0005b0 61 c9 7a 9f 80 33 ad 3f ad ec e0 58 01 2b e5 3f
       0.05703355738423244 0.6614996658239726
0005c0 68 ec 8a cc 94 67 81 3f c3 eb 3a 4c c1 22 e5 3f
       0.008498346798083214 0.6604925621862708
0005d0 7a 87 dd 0d 90 4c c4 3f d3 73 c7 49 4b 6b e3 3f
       0.15858650853175132 0.6068474236486686
0005e0 15 03 f7 f3 29 ed c6 bf 76 ce ef 0e 35 f0 e1 3f
       -0.17911266720150168 0.5605721751912387
0005f0 53 04 02 21 58 5a cb 3f ff 5f 13 6e ea 14 e3 3f
       0.21369458781922165 0.5963031911769575
000600 a7 34 b9 a4 9b 71 c9 3f 63 9e b0 00 15 e2 e4 3f
       0.19877954047334365 0.6525979054903924
000610 49 ed 61 f8 d3 76 be 3f 0c 18 1b c0 a2 de e7 3f
       0.11900067152048623 0.7459272148196319
000620 7a 54 9c 27 bf 5f b1 bf b3 9d 9f ad a9 fa e6 3f
       -0.067867228670666 0.7180984870037065
000630 ea 30 bb cc 57 98 94 3f 6d 56 7f a2 c4 c6 e6 3f
       0.020112392302324013 0.711763684633025
000640 c4 af 18 09 1e 9b bd bf de 2a d1 3a 54 05 e6 3f
       -0.11564815256195887 0.6881505154391012
000650 ae ba 72 cd 3e 20 c6 bf e8 ef 9a eb fc e9 e5 3f
       -0.17285904914520728 0.6848129846252933
000660 17 3b 8d 60 aa 28 b6 3f ca e2 f7 0e 92 df e8 3f
       0.08655800683230229 0.777291325793237
000670 bc ce 25 cc e1 f8 a2 3f 6f 88 55 d1 fe 57 e8 3f
       0.03705506913220577 0.7607416237408539
000680 73 4e 7c d8 6d 9f cb bf 47 12 c7 d8 2b fd e4 3f
       -0.2158028895433862 0.65590469684009
000690 4e 0d 5c 57 6f 80 c5 3f d5 b8 67 06 6f 93 e7 3f
       0.1679820229111137 0.7367472767926083
0006a0 09 17 ac f2 f2 57 d2 3f bd 91 6e 76 c6 ca e5 3f
       0.28661798189601534 0.6810028374789493
0006b0 82 e9 d5 c8 8d 4e c9 3f 15 b6 30 71 ec 70 e6 3f
       0.19770977312493804 0.7012846194026588
0006c0 cd 7d c9 fc 9f 56 cf 3f a8 80 ae 46 3a 1f e6 3f
       0.24483108370894371 0.6913119678975095
0006d0 88 02 ca e7 40 24 bc bf b8 89 08 fa 40 7b e8 3f
       -0.10992818507112123 0.7650456317390342
0006e0 88 99 68 5d cf 63 d4 3f 22 07 91 84 16 91 e5 3f
       0.31859192010815507 0.6739609326543567
0006f0 ad 82 d3 45 f0 d5 cd 3f 5a 00 bc 6f b6 0f e8 3f
       0.23309138688548128 0.7519180471717946
000700 3c c8 09 32 b1 df 5e bf 9f 72 73 f1 67 1f ea 3f
       -0.0018843870567733087 0.8163337436522687
000710 ac 19 39 e7 73 6f d3 3f 6c e2 5e d0 2f 38 e7 3f
       0.303677535823591 0.7256087369670019
000720 f3 f8 94 7b 5e c8 c7 bf d7 cb 17 a5 dc ea e7 3f
       -0.18580227884553543 0.7474196648093948
000730 d6 7e 62 a0 e7 ea 9a 3f 36 88 6d 45 41 f5 eb 3f
       0.026286715664013048 0.8736883502972492
000740 c5 5f 28 4a db 35 d2 3f 56 58 68 02 42 09 e9 3f
       0.2845371460148239 0.782380108549442
000750 82 1e fb 38 83 54 ce 3f 0d 2e 30 92 f9 12 ea 3f
       0.23695411951324635 0.8148162703741392
000760 ba 49 80 68 c7 e0 c5 3f 53 3c 11 d4 13 34 eb 3f
       0.170922208810749 0.8501071111621833
000770 a8 c4 31 db 4b af c1 bf f5 32 82 86 07 82 ea 3f
       -0.13816211893894104 0.8283727290268802
000780 c4 66 71 e5 6f 5f a5 bf a6 f1 d3 f7 db 07 ec 3f
       -0.04174375224893148 0.8759593811405935
000790 d5 cc e2 9f 64 6c b9 bf 66 68 d8 8b 99 fb eb 3f
       -0.09931019690957339 0.8744628650049548
0007a0 13 ca f9 09 df 2d d5 3f 57 e6 28 72 c6 a2 e8 3f
       0.3309247586650212 0.7698700170214562
0007b0 6e 01 cd cc e3 f9 c6 3f be 51 89 c0 5b ed ec 3f
       0.17950103282965862 0.9039744148708946
0007c0 30 68 40 76 3e a6 ce bf 1d 9c 60 f5 99 cf e9 3f
       -0.23944836400988967 0.8065919678236956
0007d0 3e cd 9d 38 0e c8 d7 3f 8e 1f 3e 34 65 2b e8 3f
       0.37158542183825094 0.7552972813000325
0007e0 9b 8b 72 6d ee bd cc 3f 79 57 73 57 0c 2b ec 3f
       0.22454624504197515 0.8802549083727477
0007f0 53 f4 42 53 3b 69 c0 3f 85 0e 6f d1 71 c6 ec 3f
       0.12821141782288467 0.8992241945747571
