data/100349/param_100349/param_4.npy (npy, 10464 bytes, 1 tensors)

array f8 [646, 2]
0	0x0000000000000000	0.0
1	0x0000000000000000	0.0
2	0x3fc769bf7e274cb8	0.1829146734222371
3	0x3f9431ea86334d14	0.019721664849226064
4	0x3fc611b5d2391b7e	0.17241547360228177
5	0xbf98aaf39aac5de5	-0.024089628520497803
6	0xbfa6abd79142079d	-0.04427980087440562
7	0xbf90c19a5cb788ec	-0.016363536747925275
8	0x3fa6a138a8c9221d	0.04419877109882384
9	0x3f873978217fe6fe	0.011340082666709158
10	0x3fb6ad8e4c118e80	0.0885857520784672
11	0x3f982b8aa1e26532	0.023603597765576363
12	0x3fc137870fff9a8f	0.13450706750082417
13	0x3fa489a36b7fdeb8	0.04011259734391842
14	0x3fcb41fcda33ebc9	0.21295128492769624
15	0xbf937141c4908a62	-0.018986728308059482
16	0x3fb4c5dca0428cad	0.0811441317805925
17	0x3fd127d63405ee61	0.2680564411200291
18	0x3fbc482d8b5dec47	0.1104763474703968
19	0x3fd0d018ebff2526	0.262701254334916
20	0xbf993ccb2f452c6c	-0.024645972023148152
21	0x3f97b5e856abe316	0.023154859819416528
22	0x3fae2b5bc8281491	0.05892454927747182
23	0x3fccfd8a174ee1b7	0.2264874090012776
24	0x3fc077b3241fa92f	0.12865294708110173
25	0x3fcda46daff07183	0.23158045855315032
26	0x3fc78760beedf2bb	0.18381890604714166
27	0x3fcd20b0aee7b2c0	0.22756012478148158
28	0x3fc7990163f7c723	0.18435685521358733
29	0x3fc899ff0b50a971	0.19219959309095772
30	0x3fcbe6f5cc62f4b6	0.2179858444195923
31	0x3fcb5c331ae58795	0.2137512093859725
32	0x3fce054240145067	0.23453548554300882
33	0x3fd003a8505b416d	0.25022323462783086
34	0x3fd04a2c015fa1ea	0.25452709325921197
35	0x3fcc60c1f689c6b0	0.2217028096961733
36	0x3fcfb08b60c8130d	0.24757520890866438
37	0x3fc859ce55023956	0.19024066115202726
38	0x3fd1ca8cc1609c77	0.2779876602603006
39	0x3fc9a981109dc526	0.2004853564390398
40	0x3fa6447ca7a243d9	0.04349126383124941
41	0x3fd0729ab75be12b	0.2569948950399687
42	0xbfb9cc1c5534ed04	-0.1007707317375442
43	0xbf924b86b90792c5	-0.017866234820661093
44	0x3fbb47854ed91f28	0.10656006979945387
45	0x3fd2db0d3889607d	0.2946198513141168
46	0x3fae045cfc9331a7	0.05862703879538183
47	0x3fac07c17a1c5f9a	0.054746671825511586
48	0x3fc7d3b02d817775	0.1861477110095923
49	0x3fd0b7016f7ff5e0	0.2611697758546523
50	0x3fae7cfbbc659098	0.05954729723706115
51	0x3fd2b9c450749251	0.2925883088776447
52	0x3f97710f5c03daf6	0.022892227164414934
53	0x3fcdefa434cf40f1	0.2338757760867405
54	0xbfc06afd45524352	-0.12826505551177064
55	0xbfa274b048835a6e	-0.036046513416000944
56	0xbfb161ebb96574f9	-0.06790040279652833
57	0x3f85b0713a524206	0.01059044322235626
58	0x3fb52ee0c21c972f	0.08274655093245252
59	0x3fc92ac22eaeab29	0.1966173866215624
60	0x3fc141116f828736	0.1347982210618796
61	0x3fd2680b5ecb03bf	0.28760036713725506
62	0x3fc74497cf79417d	0.18178079252767168
63	0x3fc02aabc7608d7e	0.1263022159119877
64	0x3fcbdf27c92e1e6e	0.21774766276597596
65	0x3fc1f0a85dce9e48	0.14015678959298072
66	0x3fd3b866b7482559	0.30812995813956473
67	0x3fcab4202577304a	0.2086219962060361
68	0x3fd34d8b32670471	0.3016078941546488
69	0x3fc7025ae644ec00	0.1797593712197738
70	0x3fa531158b148635	0.04139010737186447
71	0x3fd43fd2da02c46b	0.3163954857837498
72	0x3fd0407cdc6b4f22	0.2539360191851633
73	0x3fc0b2c387baf551	0.1304554379220613
74	0x3fd251de9b1b1283	0.2862469210342981
75	0x3fce1f47e4130374	0.23532961498679195
76	0x3f845608bd0077d1	0.009929722087743816
77	0x3fd3de1e3f5d711b	0.3104320162581346
78	0xbf8884f85bcca513	-0.011972370435233281
79	0x3fceb1cf0ee18108	0.23980129458050947
80	0x3fb8c0c1feae1a4b	0.09669125049377063
81	0x3fd4747e433a40f4	0.3196101814765051
82	0xbfc1a69c1a6c8ba8	-0.13789702692255656
83	0x3f76a0c55c41414f	0.005524416865299322
84	0xbfac6bb67d2715f1	-0.05550928380720766
85	0x3fab420a6338d82d	0.053238224613253095
86	0xbf8823aab9d9da7c	-0.01178677920982562
87	0x3fb02d41895f6dd3	0.06319055179431325
88	0x3f9dd721334eb1b5	0.02914096713691246
89	0x3fb77659cee9573f	0.09164964009809483
90	0x3fb299505a024656	0.07265188405497133
91	0x3fb924c66cbb92ea	0.0982173934422225
92	0x3fb9ba5c53df3181	0.10049988792088095
93	0x3fb160ac8b85f3cc	0.06788137823418977
94	0x3fcc5ffe97214ae9	0.2216795194568342
95	0x3facde18a8108b39	0.05638196040697214
96	0x3fcdfbb792ee49cf	0.23424429582935466
97	0x3f8c4be59c88bc32	0.01381663688616017
98	0x3fd40f25c367ff39	0.31342453081741756
99	0x3fce98926d48b43e	0.23903112732060267
100	0x3fc18eb860f3ec51	0.13716797575020448
101	0x3fb39f3fda3ea396	0.07664870336760851
102	0x3fbdbb96c2940988	0.11614362955518776
103	0x3fbb8dc60ce77de2	0.10763204398198625
104	0x3fc6579379005d69	0.17454760940811845
105	0x3fb0ceff3b6db77b	0.06565852356808748
106	0x3fc4dbee134d4f2b	0.16296173040847725
107	0x3fb9d6bb223a474d	0.10093278489719389
108	0x3fcb71cc445ff054	0.21441033686267252
109	0x3fb9d8c8aa042de8	0.10096410895146557
110	0x3fd04bc44c8d3cdd	0.2546244380545895
111	0x3fd1aa3220951b43	0.2760129278362237
112	0x3fd271a00c0073b7	0.28818513080642155
113	0x3fd11b0c1e733d19	0.26727583860061227
114	0x3fd2e84c0d8a7659	0.2954282886729281
115	0x3fbfc6d10d0939f2	0.12412745064032274
116	0x3fd57e11606e3870	0.3358195726112916
117	0x3fc64175b29560c7	0.17387267322442865
118	0xbfc52e5bac682a1d	-0.16547723692231467
119	0xbf9ca9fdfdc88595	-0.02799221860380426
120	0xbf8a98b72791d917	-0.012986594100067124
121	0x3fbca574ed378f33	0.11189966956549995
122	0x3fa40d2e22d0d0d4	0.03916305708881543
123	0x3fc50b86ecf696e5	0.16441427774878217
124	0x3fc4a350b1cdcaff	0.16123398477392212
125	0x3fd37888b4afdfe5	0.30423181195464927
126	0x3fd0ca5c426d4c9a	0.26235109793669553
127	0x3fb201ee521ffb81	0.07034196381571968
128	0x3fd5c3d3b6218128	0.34007733141153773
129	0x3fcb4f0b770f573e	0.21334975541565798
130	0xbf97b6feca738d02	-0.023159009081507705
131	0x3fd3db42f694d32c	0.31025766449174585
132	0x3fac9a20bca84ecb	0.05586340239474693
133	0x3fd5dd65924a93d1	0.3416379860521462
134	0xbf82a7b7be2d0163	-0.009108958712773235
135	0x3fca3f29e6cfd5bf	0.20505260248289223
136	0x3fc532cefbead3d2	0.16561305332802917
137	0x3fd55c3dc2a1d321	0.3337549591736196
138	0x3fcb8289b7a6cd06	0.21492120234834305
139	0x3fd3dc23c510d9fc	0.31031126255712116
140	0x3fcf169867174590	0.24287705453620534
141	0x3fd3746b01db55db	0.3039805906422239
142	0x3fd484c107e72a0a	0.32060266277099514
143	0x3fd0fed59c800b97	0.26555385859699626
144	0xbfb45cc9a9d50ffe	-0.07954082866950782
145	0x3fd2f049bcbbd1ab	0.29591601782820004
146	0xbfa4381def9554a2	-0.03949063825226885
147	0x3fd59b63b4c6c896	0.3376092210193148
148	0xbfc4c79905591ee9	-0.1623412395585924
149	0x3fb7d1b853411950	0.09304382355285168
150	0xbfcc496dff31ce78	-0.22099089584991183
151	0x3fa3e2ce93212816	0.03883977457060454
152	0xbfb4a05ada9777eb	-0.08057182156286984
153	0x3fbf5b973a5a47d6	0.12249131369233565
154	0xbfc02a330a4fd7a9	-0.12628782275686248
155	0x3fbc6eb4807a5169	0.11106422554650454
156	0x3fd587e3462e02c6	0.3364189324711727
157	0x3fbc2df670d88713	0.11007633452439007
158	0x3fd74d681932d1a2	0.36409952603141893
159	0x3fc67f66877874f9	0.17576295485279284
160	0xbfaf4b04ff82556d	-0.06111922854430927
161	0x3fcdeef26f193469	0.2338545839760713
162	0xbfa3ef5f7987f9cc	-0.03893564566168414
163	0x3fc6c600a6690765	0.17791755795957012
164	0x3fc7fd2b5f4a654a	0.1874136176382229
165	0x3fd440a42f4f3f0e	0.31644539470743005
166	0x3fd7fe8ca747f418	0.37491146408120946
167	0x3fcbcdcf82e54686	0.21721834079157903
168	0xbfba9bdd119b7fda	-0.1039407890307297
169	0x3fd1955be96b4cae	0.27474115176046154
170	0x3fd12442a16d7f61	0.26783815159250507
171	0x3fd4f8bfeca53aed	0.3276824770918399
172	0x3fd39026f7b94497	0.3056733531166826
173	0x3fb62db4d6172b63	0.08663492419070233
174	0x3fd3ec65e11a6e11	0.31130358679522013
175	0x3fd2b95caa97a1b9	0.29256359729199805
176	0xbfc6bc83e78cbe55	-0.17762802892819943
177	0x3fc08a26573d76ee	0.12921599635858833
178	0xbfba60690df44ccc	-0.10303360548668933
179	0x3fc8bc5a6b55bd75	0.19324808350527758
180	0x3fa4d1ba99e7863a	0.04066260460582467
181	0x3fd76f9c4df85452	0.3661871682573451
182	0xbfb262a576c1d2c5	-0.07181772374481017
183	0x3fca4b4357e20d8d	0.2054218463054948
184	0xbfb12d42e8f5edbe	-0.06709688365474784
185	0x3fd63a15a5ca7491	0.34729520025741417
186	0xbfd0ed9670c1ec2e	-0.2645011998317298
187	0x3fb017e5965704bb	0.06286463661583046
188	0x3fd9158def1a4a8e	0.3919405779826456
189	0x3fd002d153d58021	0.2501719778720162
190	0xbfbe22681de6ecc4	-0.11771250467329525
191	0x3fd5935705ecdddd	0.3371179159034606
192	0xbfd13c56e79a6a42	-0.2693078290700762
193	0x3fbb43349d83c872	0.1064942249829828
194	0xbfcee9fe7b337610	-0.24151593223261658
195	0x3fc04140f7770d2f	0.12699138720754763
196	0xbfca90119d84ae0b	-0.20752163115808772
197	0x3fc2e87ebc36ebec	0.14772018613970717
198	0x3fb780d5083d3620	0.09180957270765377
199	0x3fd76e23a4684957	0.3660973649540628
200	0x3fc6c27fc3c8a7aa	0.17781064090496318
201	0x3fd6dd433f7ebe48	0.3572548027104614
202	0xbfb8ee15032b26d1	-0.09738284423215339
203	0x3fd72c2a02609796	0.36207056266936755
204	0xbfc06914672a1978	-0.12820677792860713
205	0x3fd0a5e907f80388	0.2601263597317076
206	0xbf901c805cb374f4	-0.01573372426797888
207	0x3fd7e0564128cde5	0.3730674396822152
208	0xbfb9de36bc984cba	-0.10104696373336966
209	0x3fce52d9edede101	0.23690342061650685
210	0x3fc2e6bf846f2264	0.1476668736124963
211	0x3fd7d5357e55d759	0.37238824212487526
212	0xbfa05c94d26ae541	-0.03195633953641642
213	0x3fd98ea92fe60d95	0.3993323295364573
214	0xbfd360c9e87744f3	-0.30278251363513603
215	0x3fb4ee0ae5905134	0.08175724129279588
216	0xbfcf0cd8027b8b9c	-0.24257946130009322
217	0x3fc4e3c26a4297d4	0.1632006663177764
218	0xbfc69c2105779504	-0.17663967863988017
219	0x3fcb633603dabe7a	0.2139651793308877
220	0x3f5acd15bb7d20b6	0.0016358101110700968
221	0x3fd954ab2e7fa0c7	0.3957927660071729
222	0x3fbe7a94ab01a9c1	0.1190579335686044
223	0x3fd81f2c1235c15b	0.37690259722059744
224	0x3fca9e8b00b06a52	0.20796334775589514
225	0x3fd75c19fb8206f4	0.3649964290744798
226	0x3fcde57a64dd7e9c	0.2335656158929752
227	0x3fd56ec63ab7cd8f	0.3348861287515427
228	0xbfd5d9a0fbc4b844	-0.3414080103565349
229	0x3fba462785f41ec6	0.10263297100402288
230	0xbfc18cd0b35115d1	-0.13710983997059015
231	0x3fcce6c16e2ad70e	0.22579210166230052
232	0x3fa19d808718efff	0.03440477036608058
233	0x3fd95053c314ed96	0.39552778292610336
234	0xbfd1ab7f4c7e2d7c	-0.27609236211784327
235	0x3fc4128ce713db4b	0.15681611331066345
236	0x3fd1861a78f150a5	0.2738100224571645
237	0x3fd895bda55c614d	0.3841394533970018
238	0xbfd3632b75a7e40d	-0.30292784204317585
239	0x3fc7684ad5897034	0.18287024904827975
240	0xbfc2843ec80afe53	-0.1446608044407066
241	0x3fd2432497726066	0.2853480795834059
242	0xbfc49f5a84320b81	-0.1611130853162557
243	0x3fd02fff90202412	0.25292958330879955
244	0x3fc864153b81aa8c	0.19055428891745796
245	0x3fd84851ba1b89d0	0.37941401648108997
246	0x3fd60b0454d313b8	0.3444224193920564
247	0x3fd2bbf079a84c9c	0.29272090798003503
248	0xbfbda904477f3fe0	-0.11586024041685006
249	0x3fd8c5c32386d15b	0.3870704504909292
250	0xbfc2d7d9d7865ee1	-0.14721224807430303
251	0x3fd681e041e2f4d7	0.3516770022795987
252	0x3fc502fdd02ab88a	0.1641537920417629
253	0x3fd914917eceda21	0.39188039191813756
254	0xbfc22b443c4d4619	-0.14194539017130195
255	0x3fd871957ea9f0a0	0.38193261498941844
