data/100349/param_100349/param_7.npy (npy, 9488 bytes, 1 tensors)

array f8 [585, 2]
00000000: 0000 0000 0000 0000 0000 0000 0000 0000
00000010: 5bbe 0774 48ab b43f 3f70 02f9 bbfe ae3f
00000020: 3094 6983 b9ff a03f 50b5 0537 b2ff a73f
00000030: f366 4a96 0b2b bf3f 12c1 b945 9e7e b03f
00000040: 7141 c87f d587 c53f 95c8 e0e4 0f6f ae3f
00000050: 3be5 2d6a 29ac b8bf 2714 f251 a1ba 85bf
00000060: dd5e af80 d4d9 c1bf 5603 74ed cfb1 99bf
00000070: 0b1d 3a94 786a 9ebf 3960 33a8 7038 d33f
00000080: 1092 14e7 3620 adbf cc6c 145c de1f d23f
00000090: 3f03 00d2 44e1 8ebf 1859 8e7a 5a3d d13f
000000a0: 424c a2de aaa1 abbf 1bdb 1d00 21db cf3f
000000b0: ec4f 0b97 9ac9 bcbf 85bc c5a3 97e8 cf3f
000000c0: 8b30 1e4f bece 9dbf d6d3 7b8a ac09 cd3f
000000d0: 2742 935c 26ef bebf 485d 47a1 b48e cb3f
000000e0: 2390 87c6 b3fa c4bf 3b92 1efb 7dd5 d03f
000000f0: 0751 dbba 5522 c4bf 06d7 ed9b 9da3 cb3f
00000100: 0ce1 2dd3 278b c7bf dae0 0bac 6a3d cf3f
00000110: 8d61 a615 bd83 9dbf 06a6 28a3 24f5 d43f
00000120: 976f 01cd 2f21 c1bf 1988 1f7f 608e d13f
00000130: 0c26 61e2 b087 b8bf a815 c9e6 7c7d c93f
00000140: 41e8 3eee f746 8abf 64e4 c755 22f3 a43f
00000150: 89a3 f446 2a15 9a3f 2219 199b be33 d13f
00000160: 374d 55c1 95ca cd3f 799b e1ec 4b5f ac3f
00000170: 1d4a 52d8 36fd b4bf 355a c19d db3a d33f
00000180: 2fc6 6efc f65a a93f fedf 001c fb97 b63f
00000190: 8139 cff1 1b62 a6bf ac01 c184 9bb3 c63f
000001a0: cb51 a681 f7e3 b6bf 8112 fc1e fb4d c53f
000001b0: 7ef7 1660 ecc9 c0bf 5c43 86d4 9ca7 d33f
000001c0: 166e dcf2 0402 cbbf fb3f b01c c9e2 cf3f
000001d0: 3f0a 6380 ff72 cabf f26b 8f16 d007 c83f
000001e0: cf9c eec7 9d43 ad3f 5419 d985 934c d73f
000001f0: 423f fb27 680d b13f 8745 a047 7941 d53f
00000200: fe50 f102 820c 9d3f 0d74 dbd6 6c91 d73f
00000210: 46cb 2121 f851 b93f 2b0e 812e 1e18 b83f
00000220: 5c66 3f24 0f8b b2bf dfd4 9ad8 c21f d63f
00000230: c61a e80e e290 cebf 804e cabe 1747 ce3f
00000240: c1bd ced3 c547 9dbf 84c1 5a92 8af8 d63f
00000250: bed8 77d7 97f5 c93f 0d82 d856 d208 b33f
00000260: 0ef0 c447 9b10 b6bf 1cba 83d0 c3b2 d73f
00000270: 37a5 802b 08ca 74bf f97f 3796 55fc b43f
00000280: 9c8c fe94 6bb6 bebf 7f1d da0a 54a3 c13f
00000290: a303 d0b2 6529 b8bf e8a0 41ad bce1 a63f
000002a0: 4cee 0bf3 5603 c4bf 1ec7 fb24 e2ae c23f
000002b0: a6cd 03e9 31c4 c1bf 0f4d e927 2a0e 9a3f
000002c0: 78a8 5112 470f c9bf 9188 2bc5 e0da d13f
000002d0: 768f a594 0c7c cdbf 0ea8 c3db af45 d13f
000002e0: 2f3f 7c32 e147 b63f aa5f b542 8967 d73f
000002f0: 8511 400d ed80 ba3f 8d08 f232 4ead d53f
00000300: 79ee 709d 67c0 a73f 69eb 724f 6bbd d83f
00000310: 611f 4790 41d8 b33f d052 4c26 8580 d33f
00000320: 25b4 427e bb57 bf3f b645 c5ed 6f3d c13f
00000330: 7474 ece4 99dd acbf 20f0 e83c 6cc1 d73f
00000340: 85cb fe22 7e46 b23f f136 d059 5714 c03f
00000350: e9a9 2f80 b35b 953f 7989 d809 e0af be3f
00000360: cad9 7c6c e66b b1bf 1363 0653 3199 c13f
00000370: 6795 7671 07a0 adbf 3386 54a9 5f9f b73f
00000380: 1d35 b50a 358b bcbf e291 d1d5 71ac d63f
00000390: 1a1b d5ee f1ae c6bf 477e f2ae 765d bd3f
000003a0: cc98 9266 4efc c4bf d018 c45d 1bc9 d23f
000003b0: 6fd0 047b b852 d1bf 82cd 3440 83ca c63f
000003c0: 29b7 7a0b f530 d1bf 9cd1 de79 11c6 cb3f
000003d0: 7903 31bd 1c21 ba3f ef17 4c4e 5a1d d93f
000003e0: 84b5 d6d1 7466 cf3f dddc 84c6 79e9 b73f
000003f0: 0001 55d4 a9c9 b13f a254 0f69 3078 d03f
00000400: cc79 c514 b12d ca3f b429 2dc1 bf5b be3f
00000410: 4784 804f 5165 a73f cdc3 5682 9e0b c43f
00000420: 47be 6bb5 8b22 b13f 1204 800d 0138 c83f
00000430: 7c94 b26f fc05 6b3f 4429 5711 3e9d c43f
00000440: 1247 38f9 1f72 9cbf d47f 2664 5866 c03f
00000450: d9c5 eb0c 9769 b9bf f67d 7e54 e886 ba3f
00000460: f297 3cb9 faa8 c0bf eae6 7b95 6490 b03f
00000470: 63a1 ea76 97dd be3f 7e07 d957 9090 d73f
00000480: 2b76 7f55 ffc5 c13f a0d6 fb84 d16b d93f
00000490: d41b 2921 4723 c23f c88d 7be1 bb18 d63f
000004a0: 422c 4731 800a 983f be2c 16e2 6d95 d93f
000004b0: f085 dc0f ea21 9fbf 2753 3043 570e d93f
000004c0: 8e83 76a8 4a04 c93f 2a64 2d1f 205b c83f
000004d0: ab76 4790 cf07 c2bf 2bd1 f1c7 dd59 b93f
000004e0: 2484 f801 4505 ccbf a9b4 aff2 0c60 d33f
000004f0: b67b 7b13 0293 c5bf 3351 7d42 9771 af3f
00000500: bc74 69b0 3412 ccbf 70f8 a408 f63e c03f
00000510: 471d 6d66 f82c ab3f 4d20 7c43 b158 da3f
00000520: 25de 6eaf 8d6d d43f 7ca9 41d8 0bb8 c23f
00000530: c1a9 b999 03f4 d13f d3ed f08e bbdf c43f
00000540: 5f68 7d8b c0a4 bd3f 2e05 a920 dccc da3f
00000550: 9e7b b81f 9417 c43f 2cc9 3afe 0125 d83f
00000560: 05f8 c8e6 671d c53f f17c 2e0a 2575 d43f
00000570: f438 d17f 1520 cf3f 6bb8 1707 4845 c73f
00000580: 17cf 2f4f db49 c53f c82c 061f 912e cb3f
00000590: d83b ef1a ab72 c03f 569e 281f 13f6 cd3f
000005a0: aebb 190f 04f5 c6bf e3d4 2ece 9256 d63f
000005b0: 92a1 6479 6f8f cabf f36d 22c1 a4de a33f
000005c0: 800f 3932 3626 d0bf 6489 e3b0 83db b93f
000005d0: 0645 ca4c c737 d3bf c3b4 0ca0 014f ce3f
000005e0: 939b 2841 425c d3bf 1d5f 0eff 2d46 c93f
000005f0: a605 16f5 b7d3 b03f c3b1 6cf9 ffcd db3f
00000600: 2bf7 c383 df72 d3bf e2a2 496b cf0f c43f
00000610: 3143 41da 12c1 d33f 0b1f ed7b 094d c83f
00000620: b093 b06f 3c00 a03f 1f4f 19da e678 db3f
00000630: 4744 99be 9826 c93f 2165 083e 9d01 ce3f
00000640: adbe c5c5 89c6 64bf 4a2d 6a26 29ad da3f
00000650: fe37 e723 6e03 d0bf 38eb f028 b2e6 d23f
00000660: 9c77 8c93 7ac6 d1bf e545 1011 4078 d23f
00000670: 6a7b c8bb b5ab c23f 7d59 3212 5010 db3f
00000680: 40e0 662d 1306 d63f 333e ec6d 6b94 c83f
00000690: 3279 5994 663a d6bf d484 4363 0891 c63f
000006a0: 917a 03c4 9a43 c03f de75 585b 9592 dc3f
000006b0: 25a8 913e 5625 c63f 2dc3 67f6 edae d93f
000006c0: 6a5d ce55 de77 b0bf 9ec3 cdab da8c d93f
000006d0: 9fdc 0552 6453 c73f fb40 fdac 53bf d63f
000006e0: 5f07 7bfb 096b c83f 6e17 1702 03fc d13f
000006f0: ff18 14e8 7695 c2bf a4dc c0e5 ec2e d93f
00000700: f6b2 7f6d 4a7f c5bf 7bf3 f869 5510 d83f
00000710: 8964 d7e8 7e73 c73f 9c83 2721 79bd dd3f
00000720: 0936 4399 28fa c63f 4aa1 dc58 a46c db3f
00000730: f3ad 718b 5d62 ca3f 6f36 563a ceb8 da3f
00000740: 84a6 4cbf f81a d73f abe5 99b2 a6de cd3f
00000750: 2496 2384 9081 b1bf 9d41 7405 c610 db3f
00000760: 5e3b 58d6 4da6 c9bf d561 4deb 90f6 d73f
00000770: da44 66fc a4a6 d1bf ccb3 94f4 438a d43f
00000780: 1b28 109b 0f76 c13f 8a4b 92c2 fb2a de3f
00000790: 42e0 c718 c310 ce3f 2089 3d42 e24d d93f
000007a0: 2294 caf2 2227 d83f 5d5f 78b0 a5b0 d13f
000007b0: 6edd 2b16 e64c cfbf f386 173c dfea d43f
000007c0: dd8c 0237 6dda d4bf 973f e99e e374 d23f
000007d0: e1fb 5990 ce44 d5bf 93a4 7e90 e273 d03f
000007e0: 5023 f373 abf2 cc3f 1bef 0c21 54a5 d63f
000007f0: 040f 24cd 73b8 d33f 9455 a6c3 ef56 d23f
0.0 0.0 0.08073857147950873 0.06053721823374802 0.03320102433352934 0.04687268182429227 0.12175056857304493 0.06443204119000637
0.16820782412879567 0.059441086472717654 -0.09637698023097567 -0.010609875024110661 -0.13946014674615173 -0.025092362277976697 -0.029703029677446795 0.30031982827995624
-0.056886401851702684 0.2831951045242931 -0.01507810369366924 0.26936971634258233 -0.053967799832343136 0.2488747835702377 -0.11245123088457348 0.24928565499019242
-0.02910897596261512 0.22685772668742626 -0.12083663711678892 0.21529252886714745 -0.1639008254416022 0.26303052447682135 -0.15729781745779567 0.21593065370296233
-0.18393419085965268 0.24406178856566535 -0.028822855421454064 0.3274623483035558 -0.13382527837790967 0.27431499876377213 -0.09582047964899959 0.19914208668539612
-0.01283067413156769 0.04091746613625771 0.025471363621508956 0.268783236945085 0.23274490299318426 0.05541455523125811 -0.08198874264989127 0.3004673996523793
0.04952213126615523 0.08825654443432993 -0.04371726347709438 0.17735618574262213 -0.08941599765086676 0.16644228947565767 -0.13116221134071887 0.30710526232092206
-0.2109991250843996 0.2491084470825625 -0.20663446205988298 0.18773842908453237 0.05715649667336608 0.3640488440618317 0.06661082244977215 0.33212120051128874
0.028368026189427013 0.3682510469641905 0.09890700158011353 0.09411800990442802 -0.07243437418892412 0.34568854477704564 -0.23879647949089228 0.2365445787041729
-0.028594103863438528 0.35891975681718 0.20280740757852372 0.07435335750825108 -0.08619089605502969 0.3702859436297403 -0.005075485147281448 0.08197531621362932
-0.11997101199681243 0.1377968838680594 -0.0943816720537272 0.04469098677583522 -0.15635191791067127 0.14596201711497597 -0.13879989507368612 0.025444658933634175
-0.19577873606187146 0.27898425345313976 -0.23034817941799773 0.2698783537040307 0.08703429682304596 0.36569434656621047 0.10352975438588004 0.33870272612706104
0.046389806717766775 0.3865612293117722 0.07751855633170869 0.30471924533894157 0.12243244011433825 0.13468741521732647 -0.05637818259695218 0.3711805910895709
0.07138813356759328 0.12562076459328567 0.020857624720443644 0.11987114181878224 -0.06805267475724644 0.13748756936981774 -0.05786154995011366 0.09227559932744427
-0.11149913321897427 0.35427518730855756 -0.17721389924755543 0.11470739146397434 -0.1639497757761944 0.29352459103428163 -0.2706738664012453 0.1780551970965512
-0.2686131107428645 0.21698206377699314 0.10206775301868544 0.39241655012335647 0.24531421896010042 0.09340630623488573 0.0694833892239366 0.2573357606864396
0.20451940073230757 0.11858747926922925 0.04569486709102271 0.1566045891209157 0.06693337611408721 0.18920910987074585 0.0032987528225754664 0.16104865881636432
-0.027779101930781876 0.12812333002238907 -0.09926742616132546 0.1036210256847808 -0.13015684170494485 0.06470326089393166 0.12056872037158466 0.3681984765900025
0.13885490107252116 0.39720571505254476 0.14170159453553188 0.3452596380213575 0.023477557189647287 0.3997454364659453 -0.030402810304741068 0.391500297178299
0.19544347024659853 0.19028092882470676 -0.14086336655502882 0.09902750140628729 -0.21891081424931358 0.3027374620422259 -0.16854883147513328 0.06141350447311069
-0.21930559743751654 0.1269214193543493 0.05307747125930944 0.41166335668868187 0.3191866124356884 0.1462416463794617 0.28051843654852965 0.1630777786211711
0.11579516797556398 0.41875365437961676 0.15696956204280083 0.37725877596962465 0.16495989579010498 0.31964994425102505 0.24316662541463752 0.1818017992622488
0.16631642691174228 0.2123586083874669 0.12849940123712034 0.234072103704636 -0.1793522905095108 0.3490340245728715 -0.20750230243107787 0.038808010650622914
-0.2523322573144853 0.10100577419828977 -0.3002794504073595 0.23678608241008278 -0.30250603068491805 0.19745421365654972 0.06573056920571804 0.43444823606366983
-0.30388629787181526 0.15673248995451333 0.30865927995641856 0.18985098410689036 0.031251801141741864 0.4292542581435885 0.19649037653519683 0.23442426232285477
-0.0025360766286935594 0.41681889296952035 -0.2502093649499101 0.29533056257394064 -0.27773918541958564 0.2885894934307472 0.1458651701841192 0.4228706529333051
0.3441207831742794 0.1920294081432857 -0.3473144959188118 0.17630104872572494 0.127063127240906 0.44644674225295755 0.17301443152547438 0.40130185187358586
-0.06432904810787013 0.39922205712996994 0.1822324181082182 0.35542766469463033 0.19076657084775214 0.2810065765773889 -0.14518629390676804 0.393489097946665
-0.16794710489866532 0.3759969267737728 0.18321215028007412 0.4646895240567177 0.17950923427126522 0.4285059802810066 0.20612687405387894 0.417529637307644
0.36102122003158166 0.23335727425346184 -0.06838324762392084 0.42289877445821294 -0.2003876968960538 0.3744241998552103 -0.27579617164981374 0.32093905339098394
0.1364154345649816 0.47137350083465235 0.23488653860090564 0.39537865132128225 0.3773887034424793 0.27640669091623754 -0.2445342643984349 0.3268354498705854
-0.3258317029196414 0.28838434713997557 -0.3323246392901052 0.25707306013880177 0.22615569268807656 0.35384085872259313 0.3081330779389051 0.28655618769092794
