data/100349/param_100349/param_9.npy (npy, 6992 bytes, 1 tensors)

array f8 [429, 2]
0	0x0000000000000000	0.0
1	0x0000000000000000	0.0
2	0xbf98996e1c8ace04	-0.024022789470747
3	0x3fa9f623d53ed86d	0.050706023961013404
4	0x3f9e27794d2f8a67	0.02944745572666321
5	0x3faca1e5ef801e06	0.05592268513288094
6	0x3fa3b78f04ebd89b	0.038509816504231874
7	0x3fbb6afa9a4dcf83	0.10710111872850629
8	0xbf8c82e3d4ae8a52	-0.01392152779391612
9	0x3fb916f17c2ea00e	0.09800633699217107
10	0x3fc1ac373a600e91	0.13806810713150644
11	0x3fcc028656042f73	0.21882704925553362
12	0xbfd2eddffa02c610	-0.2957687322151239
13	0x3fb03e15e95fa0e1	0.06344735095592881
14	0xbfd01926337b4640	-0.25153498675817687
15	0x3fb366efdebca05a	0.0757894438544339
16	0xbfb03c8e769af8f6	-0.06342401881827073
17	0x3fc0d57c331c0366	0.1315150498922108
18	0x3fb791d313e3d9be	0.09206885562512121
19	0x3fcae1a238f15d34	0.210010793499103
20	0x3fc4ebd31de1c371	0.16344679793430886
21	0x3fd038aa4b25ecda	0.25345856989561144
22	0x3fa2c9ce16969599	0.03669590020880804
23	0x3fc8e00c35518d7a	0.19433739283986623
24	0xbfd78e1efaa6e362	-0.3680493781826525
25	0x3fb7c6ed7a9b9482	0.09287914508202458
26	0xbfbdc5a2207b13de	-0.11629689496028514
27	0x3fbc6cde44b77bab	0.11103619744925079
28	0xbfd48cb98ab6046c	-0.32108915849682407
29	0x3fbc09faa2aa84cf	0.10952726813640655
30	0x3fc8262dbeab3f7a	0.1886651211739226
31	0x3fd271a58abf83d2	0.2881864409410443
32	0xbfcc8f648f92a1dc	-0.2231260014571167
33	0x3fc371c96f9dc61d	0.15190999937071661
34	0xbfbd359a20b01b7d	-0.11409915254635723
35	0x3fc440bf2a9e44db	0.15822591381996784
36	0xbf98c18b3f2665f4	-0.02417581150948496
37	0x3fc7367707efdcad	0.18134963882014202
38	0xbfd158d0db36d2ef	-0.27104588897354537
39	0x3fbd9c33db7a40e6	0.11566471203173342
40	0x3fccfdaa06b947b6	0.22649121597583893
41	0x3fd4b72613c471bd	0.32367851190954494
42	0xbfcd732172c1ad67	-0.23007600882861398
43	0x3fc9422b473016cb	0.19733181930512553
44	0x3fbedc24bfef82d0	0.12054662404944883
45	0x3fd0a9e0bd7b8950	0.2603685236373581
46	0x3fd09c85c0e162b3	0.25955337367990267
47	0x3fd6553e860c71d7	0.3489528950756528
48	0xbfdb73aa5f9f6c28	-0.4289346631828175
49	0x3fbe515cb7735a46	0.11842898825430223
50	0x3faeab8a0430383b	0.0599024896729223
51	0x3fcf9921c7683c70	0.24686071621588068
52	0xbfa927cb5366b206	-0.04913173096733563
53	0x3fcd5780376fbcd4	0.22923281390055783
54	0xbf691eeedf3e38c9	-0.003066507861098609
55	0x3fd02307fa0b449b	0.2521381322704401
56	0xbfd1826e0bb19953	-0.2735858072468506
57	0x3fc65fa8d9075635	0.17479429814436434
58	0x3fc16499da19968f	0.13588259839450642
59	0x3fd36af4e5e361e0	0.30340311479588244
60	0x3fc7d18eb5a87db2	0.18608268613841755
61	0x3fd60236dbe8818e	0.3438851497212675
62	0xbfd421e943582e25	-0.31456977440459105
63	0x3fc394956dc441a7	0.1529719148607118
64	0x3f9eebf4fb4e18c4	0.030196979368633206
65	0x3fd1d6bfab336ce6	0.2787322208293531
66	0x3fb4db452302eecb	0.08147079567691688
67	0x3fd32374ed248e0b	0.29903910788036175
68	0xbfc7d97955f2e834	-0.1863242788002154
69	0x3fc9d142e7f18375	0.20169864964830322
70	0xbfb98044090785c5	-0.09961343021816223
71	0x3fcf901227c93c8f	0.24658419554404928
72	0x3fccadbc75aa1dc2	0.2240520071538708
73	0x3fd78270e12f8bc2	0.36733648291390975
74	0xbfac1af634839cc4	-0.05489320174256698
75	0x3fd1b23e444a37e9	0.27650410336434433
76	0x3fccc0ccebf8eac6	0.22463380357824841
77	0x3fd9d46a23333779	0.4035897582770001
78	0x3fd554449c1a4dbf	0.33326831097039283
79	0x3fdb52af1e95cce4	0.4269216345484905
80	0xbf22e85749117220	-0.00014425340171699084
81	0x3fd68866ef486911	0.35207532279459125
82	0x3fc2d22af7abf03c	0.14703881352750325
83	0x3fd70f7471843d2f	0.3603182896194594
84	0xbfb7f4923a801f75	-0.09357561043009162
85	0x3fd30bcd7d0032f5	0.2975953789435118
86	0xbfd9bff84acddfb4	-0.4023419123182024
87	0x3fcc1a284b2af19f	0.21954826040554296
88	0xbfa811000be5d591	-0.047004701092116304
89	0x3fd4ba1f418e042f	0.32385999109107194
90	0x3fb43a7e8d6ce57a	0.07901755287902815
91	0x3fd64b9cfa49c132	0.3483650631160514
92	0x3fd3472421a601a3	0.30121711050017036
93	0x3fdc783544b94292	0.44483691893859956
94	0x3fc1662b4da44a1c	0.13593045512296065
95	0x3fda63e1138f50b1	0.41234614286555443
96	0xbfd049d8aaaf01be	-0.25450722378084467
97	0x3fd2446ebd4997db	0.2854267929563982
98	0xbfc898d21390907f	-0.1921637149363313
99	0x3fd2508b5eb09be1	0.2861660408693166
100	0xbfdd12e3938652dd	-0.45427789122304124
101	0x3fcee32914c8c3d0	0.24130738749366154
102	0xbfb87d141ce94eea	-0.09565854745715865
103	0x3fd5668f4995a759	0.33438474832529647
104	0xbfd9f178ab39eea9	-0.4053632423526588
105	0x3fd1c8ef97d6e46a	0.27788915470188746
106	0xbfd2da76f04560bd	-0.29458402122464716
107	0x3fd0a43a738c4dd0	0.2600237015151068
108	0xbfc549906e54249f	-0.16630750071661723
109	0x3fd471784491c3e3	0.3194256467459679
110	0xbfcbc8d446d2c3df	-0.2170663209740544
111	0x3fd50dbe089409e1	0.32896376455042114
112	0xbfaadc8bdbcc2d8d	-0.052463884907491744
113	0x3fd79ac66cebb5f9	0.3688217223815112
114	0xbfd144a5e0bbc4d9	-0.2698149389899079
115	0x3fd50c2acb817c7a	0.3288676249848731
116	0xbf51a5c9b56c0f2b	-0.001077124577649034
117	0x3fd99819d9b0386c	0.3999085069525623
118	0x3fd31c5430da4b8b	0.298604057033281
119	0x3fdf14eee291a1a2	0.4856526577555319
120	0x3fd12d49a3232a0b	0.2683891385210308
121	0x3fdf73ff856ed12f	0.49145496397547367
122	0x3fc5319d9174e246	0.16557664492008167
123	0x3fdc7efdf05a3d9a	0.4452509734337241
124	0x3fcd9244100ff3aa	0.23102618011753623
125	0x3fdf0f0cbdb8ec94	0.4852935650594159
126	0xbfd3d9ba4d4a1130	-0.3101640467432558
127	0x3fd30e324b9872d6	0.29774148352025287
128	0x3fd6670fd4a1eef7	0.3500403954019328
129	0x3fe076ecb9877f3a	0.5145171760195588
130	0x3fa6ab9e4167f0be	0.044278092846043546
131	0x3fda6cf0c7ed118c	0.41289920352962706
132	0xbfdfc883eaf1e43a	-0.49661348289334095
133	0x3fd217d4eecee4ad	0.2827045757399656
134	0xbfd777d37ce30dfa	-0.3666886062239595
135	0x3fd46a2964a12380	0.3189795954427197
136	0xbfbb9a7c64a0cbfd	-0.10782601792088538
137	0x3fd8f8aa816032e2	0.39017737039902844
138	0x3fc914f934dd8604	0.19595255929293398
139	0x3fdf33957d1eba8e	0.4875234338641484
140	0xbfdb22bb0ed13cb8	-0.4239947933865085
141	0x3fd55f29cb8036c2	0.33393330453041525
142	0xbfce7f5146429197	-0.2382604210917065
143	0x3fd7d8c09d1b0c24	0.37260451643322967
144	0xbfd23a29ffa15365	-0.2848000522983994
145	0x3fd8387426932a7d	0.3784456612308203
146	0xbfc884d8a47fcf7f	-0.1915541461199801
147	0x3fd7ceebf85d1463	0.3720045018602091
148	0xbfadcec244a6ed06	-0.058218069916131696
149	0x3fda81d5c594c33c	0.41417450232534114
150	0x3fcfcb5c802eed86	0.24839359530401967
151	0x3fe09b6ff9dd4d67	0.5189742927708892
152	0xbfde4d07f0339496	-0.47345159966637007
153	0x3fd56a6594cad6bb	0.3346189454126535
154	0x3fb691489769f6ae	0.08815435120228685
155	0x3fde6d6776f2dd99	0.47542749992450123
156	0x3fbfee629003be19	0.12473121658307952
157	0x3fdd574598f58b3c	0.4584516519300228
158	0x3fc213f03900fc82	0.14123347075835474
159	0x3fdf992336e16fe5	0.49372177466807293
160	0x3fd4660d64316261	0.3187287786909448
161	0x3fe0a805e77dbfea	0.5205106278717697
162	0x3fd274eff6336fe6	0.2883872894578857
163	0x3fe0bbd23c74697d	0.5229273968464409
164	0xbfc0ec34bc556b71	-0.13220843502025617
165	0x3fdb81d6c6380fd5	0.4297997413379993
166	0xbfd96fe239433ea8	-0.3974538382726487
167	0x3fd7b1549c327b71	0.3701983952868693
168	0xbfd0b3f68c5f9350	-0.26098407467207085
169	0x3fd9d898bc61db52	0.40384500881866814
170	0xbfa822a109cdc1f5	-0.04713919872927256
171	0x3fdf3dad98e5f5f5	0.4881395333430583
172	0xbf68733b0929d5c7	-0.0029846337359298067
173	0x3fdf3baa4f749cb4	0.4880166793759131
174	0x3fa88b994a1cb59c	0.04794005422295841
175	0x3fdf8c3b4c37ce87	0.4929340595547064
176	0x3fb70e0ede8e93f4	0.09005825932997863
177	0x3fe067b1ccf4b99b	0.5126580241247213
178	0x3fd16f6226c6d7f9	0.27242330347814875
179	0x3fe1c97bdc90c9b5	0.5558451946183626
180	0xbfd309688fa06604	-0.29744924570113107
181	0x3fda8807f4851fed	0.4145526779070668
182	0xbfc87b554bf1edc7	-0.19126383026364932
183	0x3fdae69c06736df7	0.42032528524370555
184	0x3fa315e60544b22a	0.03727644743262133
185	0x3fe1ea9b32223c88	0.5598884562658819
186	0xbfe00d1555868080	-0.5015970869462905
187	0x3fd8300beec5ffa6	0.3779325324794577
188	0x3fcaf2ea8f8523ce	0.21053821571174897
189	0x3fe0f11223d335e4	0.5294275951106866
190	0xbfc437a8b22a82ab	-0.15794857692255468
191	0x3fdd1e6ca1eb91a3	0.4549819546939721
192	0x3fc59218cef8ede1	0.168521023808224
193	0x3fe0fbf5167e3d2c	0.5307565154379623
194	0x3fb2ae587d96f792	0.07297280374674944
195	0x3fe2b98d62b87d30	0.5851504257333655
196	0xbfd309799dc9ef31	-0.29745331200659836
197	0x3fdd212ca7bc8f90	0.4551498067905806
198	0x3fcdcc7da31fdb3f	0.2328030630594302
199	0x3fe1ddd46be1d2e8	0.5583288294861548
200	0x3fc43de57886ecf6	0.1581389273177149
201	0x3fe2149a40949bd1	0.5650149594629231
202	0xbfd0850229a8795f	-0.258118191415539
203	0x3fdea2ef5213734b	0.4786947537921164
204	0xbfb479cd0459f6bd	-0.07998353344188565
205	0x3fe052918c08b0fe	0.5100791678464984
206	0x3fd2717011b36886	0.2881736920222767
207	0x3fe2b214eef7d816	0.5842384974810126
208	0x3fbb104f4c2eab04	0.1057176171295105
209	0x3fe26aa3c046f07d	0.5755175357258079
210	0x3fc8dd2e03edbed4	0.1942498702223846
211	0x3fe204d30fc492ca	0.5630889232603178
212	0xbfe140c9e9eb47ff	-0.5391587799770149
213	0x3fda6db7b2a670a4	0.41294662901214907
214	0xbfda23c71e58c36b	-0.40843370402858764
215	0x3fdc8b37567d4385	0.44599708029004886
216	0xbfc4b7c16fd910d1	-0.16185777627300138
217	0x3fe159cbf8c00ce4	0.5422115190889625
218	0x3f7f8da4cd512be9	0.007703441388978918
219	0x3fe2ebb4891595d3	0.5912726094654154
220	0x3fd0637920b47b7e	0.2560713595757348
221	0x3fe2b54f39733e2c	0.5846325037072737
222	0x3fcc34cc81858192	0.22036129307072067
223	0x3fe2ad9fae0df06b	0.5836943053723308
224	0xbfc13eff11fff049	-0.13473499659437696
225	0x3fe083e1f1cbd723	0.5160989496787106
226	0xbf9fbda716cdb6bf	-0.030996905104464952
227	0x3fe0c9da987ffb38	0.5246403673662376
228	0x3fd61513fcb1aa28	0.34503650357388205
229	0x3fe32b14d36e5fdf	0.5990089540018707
230	0xbfdf82f0a9fa1884	-0.4923669490748426
231	0x3fdb147886fc8609	0.4231244390703926
232	0x3fb8ad48b4707841	0.09639410405404282
233	0x3fe365a6c0f7b2f9	0.6061586159608786
234	0x3fc032e2b647c2fc	0.12655290508657646
235	0x3fe346222a0da7f9	0.6023112126688367
236	0xbfd4ed67f22310c6	-0.32699011465252814
237	0x3fde74c92f0d7893	0.4758780440805676
238	0x3fc520c71106c8d1	0.1650627930772033
239	0x3fe35cabfd462d9a	0.6050624796638886
240	0xbfc015765d3a7e79	-0.12565497924969174
241	0x3fe1a0d931fc51a8	0.5508848167688045
242	0xbfb7eb111fa9b6fc	-0.09343058608075333
243	0x3fe15686442a65a8	0.5418120700225488
244	0x3fc4150382b4ec07	0.15689128763355617
245	0x3fe3ed3622b3b3b9	0.6227064779064825
246	0x3fc224160dc86ecf	0.14172626183505208
247	0x3fe3fe010b4fff40	0.6247563572833101
248	0xbfdeb17696534534	-0.47958149604990585
249	0x3fddc3a433213599	0.46506600373398893
250	0xbfd8f8303d60ec4b	-0.3901482200050778
251	0x3fdf8a15d368a0b9	0.4928030552423582
252	0xbfd38c608e52a76e	-0.3054429426070929
253	0x3fe0748ffe8eaffc	0.5142288181136787
254	0x3fcbbd89e9e370c1	0.21672176285108516
255	0x3fe3b1ecb692af69	0.6154693189505284
