data/100349/param_100349/param_2.npy (npy, 9024 bytes, 1 tensors)

array f8 [556, 2]
0	0x0000000000000000	0.0
1	0x0000000000000000	0.0
2	0xbfa5ae6c38f89961	-0.04234636493156319
3	0x3f83374b4bd1117b	0.009382808924905053
4	0x3f9fbdb6ffa2748f	0.030997142174432
5	0x3f9ba246f8eb46e1	0.026986226027310493
6	0xbfc5daa57bca0d44	-0.17073505920789434
7	0x3fb2e80652561694	0.07385291586077819
8	0xbfb15b5e7ad86d03	-0.06780043124347306
9	0x3fa680568d17b3d4	0.04394789192506435
10	0xbfbc4658a7ec4669	-0.11044839954072362
11	0x3fc020911bbba8ec	0.1259938607611909
12	0x3fab1b8e5910577c	0.052944610950517806
13	0x3fb03de19590f3d6	0.06344423200148638
14	0x3f7a893087efc0a6	0.006478490423418892
15	0x3fb2ad80947312fb	0.07295993446593833
16	0xbfc1808601f6ef49	-0.1367347249596327
17	0x3fc43050bf6e798a	0.15772446963542236
18	0xbfca79011527632b	-0.2068177560129468
19	0x3fc26c84501ebbd4	0.14393667137252797
20	0xbfc6e7db04c7f730	-0.17895066960766703
21	0x3fc49a367e09f923	0.16095620302434907
22	0xbfce6d1b1738f7b5	-0.23770464548027595
23	0x3fc4e4f1668c3cc4	0.16323678500382333
24	0xbfd04939c4c4bb9b	-0.2544693395201933
25	0x3fc897e7efd531e2	0.19213580332360808
26	0xbfd1a0df60a99598	-0.2754438823670511
27	0x3fc40dc04fed2800	0.15666965391784515
28	0x3f882d80b559f17f	0.011805539640811656
29	0x3fc349d8e0ba6222	0.15069113705682563
30	0xbfd2a6532e722479	-0.29140166793565175
31	0x3fc91b30918e63a5	0.1961422644351646
32	0xbfd5c6b5d735fcbe	-0.3402533151310755
33	0x3fc8b9d3f0377ed7	0.19317101697287484
34	0x3f9c9f63dbb957b1	0.02795177486981232
35	0x3fbb869f9566bac8	0.10752293965809223
36	0xbfa1bb2393c533f7	-0.034630882061357164
37	0x3fc264937a473c96	0.14369433851831975
38	0xbfb56487b68696c1	-0.0835652180308797
39	0x3fcb0599c51f3787	0.2111084187039831
40	0xbfd67be97d8dd014	-0.35131299267891447
41	0x3fcd04344b507b9e	0.2266908042665507
42	0xbfcf09fe75c61a16	-0.24249249220538677
43	0x3fcd4e904af12044	0.22896007212898628
44	0xbfd3fe9194c094d4	-0.3124126389178177
45	0x3fcdbb78467fbdec	0.23228362505277234
46	0xbfdabc6654dd6b44	-0.4177490071066823
47	0x3fd175cbf31a7372	0.2728147386604213
48	0x3fbbc94857b4f693	0.10854007855683738
49	0x3fc73b344f900e4d	0.18149427304170943
50	0x3f81b9e1b590cf29	0.008655322411960835
51	0x3fc9884c13767cb4	0.19947195959409714
52	0xbfa3afcb319138ef	-0.03845057468480372
53	0x3fcb4548c870aee4	0.2130518892966996
54	0x3fad83fe29910703	0.05764765031245924
55	0x3fc750be90424331	0.18215162319077075
56	0xbfd80fc4a8ac2195	-0.375962414473656
57	0x3fd23fb7532a3cb4	0.28513892289715703
58	0xbfca412196516500	-0.20511264648192906
59	0x3fd25a117d7cfd58	0.28674733404837616
60	0xbfd34cf3873c3515	-0.3015717335373023
61	0x3fd1848604d1d476	0.27371359320324673
62	0xbfd9fdbad59b3d6f	-0.406111439323431
63	0x3fd36da9188dc7e1	0.3035681476386554
64	0x3fa25a33bb346b0f	0.03584443721975649
65	0x3fcc8942d9ef2c3e	0.22293887749978752
66	0xbfdc3147a1e91d29	-0.4405078011663642
67	0x3fd3c3dae9202299	0.308829047834061
68	0xbfdf09e632f28e16	-0.4849792001279821
69	0x3fd3f304240855f3	0.31170753020100433
70	0x3fb2e133cb6c7346	0.07374881473920167
71	0x3fd11f1d0b25d118	0.2675240143646689
72	0xbfa4470647c9a48e	-0.03960437418283745
73	0x3fd244a3cfd15927	0.285439446398771
74	0xbfd82d6d7f78fa02	-0.37777268837444933
75	0x3fd48cbbebc032bb	0.3210897257093099
76	0xbfdaaa7b4ddc9af6	-0.4166553745621252
77	0x3fd5617747d6c1a4	0.33407384887234515
78	0x3f60339a01272290	0.0019777305508095824
79	0x3fd2664eb0989a8b	0.287494347054612
80	0xbfdfda0d30a33f7d	-0.49768380880140467
81	0x3fd5f9e9f4c0cbb1	0.34337853337927543
82	0xbf9741bd8fd17066	-0.0227117175130477
83	0x3fd49eb513de91fb	0.3221867269551521
84	0xbfb535f5d4999e24	-0.08285461845809344
85	0x3fd60c5387af2ac9	0.3445023369828673
86	0xbfbf48167aba40ac	-0.12219372268941936
87	0x3fd5e830cf97c358	0.3422967936776806
88	0xbfc4bb72590f3647	-0.16197041843990886
89	0x3fd5d22378a3b37c	0.3409508398170187
90	0xbfdd1ee6452f7aa1	-0.4550109553946787
91	0x3fd6048adbb9f5f0	0.3440272470250809
92	0xbfc998b9849c5cf9	-0.19997328734527978
93	0x3fd7deb8a7767cc9	0.37296882966797945
94	0xbfe0beea4fd64b0b	-0.5233050879781741
95	0x3fd88439f9b50f98	0.38307046304202563
96	0x3fa72ddc613d49ff	0.04527176558498879
97	0x3fd89826c3d7a5c2	0.3842865860484289
98	0x3fc26237910197d4	0.14362234669095975
99	0x3fd0b31755c3e82d	0.26093085647119346
100	0xbfcdd5276db0e2e9	-0.23306744438175223
101	0x3fd71bd9f156568a	0.3610749108132515
102	0xbfd72b7ab929ca67	-0.36202877123211014
103	0x3fd89e5794b6dab1	0.3846644356048428
104	0xbfa7993a9d284bc4	-0.046090919193509744
105	0x3fd6acfb292e4a55	0.3543079282909834
106	0xbfd14a221c3d3891	-0.2701497340939421
107	0x3fd8827140419feb	0.38296157145532445
108	0xbfbab4ebe7f66fe7	-0.10432314313078415
109	0x3fd84d7003359be1	0.37972641290110515
110	0xbf8369bc1fa28281	-0.009479016986291501
111	0x3fdb6766fcc037e7	0.4281861751813935
112	0xbfc3d62585a2fa32	-0.15497273469186862
113	0x3fd84d778bd7a806	0.37972820908055416
114	0xbfdc93643a012653	-0.4464960638475521
115	0x3fd9e18773989d70	0.4043902043217349
116	0xbfd57b5906c8fb95	-0.33565354979139644
117	0x3fd9e9328f0c9f28	0.40485824556025074
118	0xbfd8ce2c512af004	-0.38758380819831495
119	0x3fdc556d749b1669	0.4427140845039959
120	0x3fb723444758a9ce	0.09038187734464673
121	0x3fd5cc1c83e5930a	0.3405829704336588
122	0xbfb56949bc492139	-0.08363781782930325
123	0x3fdad6e422a9aa4e	0.4193659151557413
124	0xbfe297c974572a7e	-0.5810286781573522
125	0x3fdb3a8e4472bb35	0.42544895824805745
126	0x3f774dd46de21549	0.005689458657916654
127	0x3fd91c1b15aa50fe	0.3923404418540172
128	0xbfd1a0521cc620da	-0.27541020212130507
129	0x3fdb7ac8ed319fbf	0.4293691936823016
130	0xbfd65815c28ecc6d	-0.34912628173623866
131	0x3fdbf645bf3320f0	0.43690627738807475
132	0x3fae236959dde780	0.05886391851431849
133	0x3fd6577f6184d191	0.34909042857477696
134	0xbfa6a1ebe47fda63	-0.04420411266612658
135	0x3fdb89eb556476d5	0.4302929243002443
136	0xbfc8edcd88cbeb7b	-0.19475716762084602
137	0x3fdc0d538c56e6e0	0.438313376474623
138	0xbfbbe49d873c5cda	-0.10895714332251619
139	0x3fdc8b16e4debda3	0.44598934507936344
140	0xbfdaf774ed496519	-0.4213535611393851
141	0x3fde6d55fcc5855c	0.4754233330223394
142	0xbfddba624f2cc351	-0.46450097782058203
143	0x3fddc483432a5780	0.46511918601151336
144	0xbfd4e30739f40c1d	-0.32635670337202943
145	0x3fddd2fced308280	0.4660026851943613
146	0xbfbef22b151748c3	-0.12088269486347074
147	0x3fe0781625283cc8	0.5146589971281168
148	0xbfd277c156afb60d	-0.2885592791124914
149	0x3fddcf4a07d0dcc9	0.4657769275976987
150	0xbfce818abfb04c0f	-0.23832830772207145
151	0x3fdd29cf3f1a399c	0.45567685282085235
152	0x3fc553563ce961ec	0.1666057393474739
153	0x3fd9de964f5bb733	0.4042106413825081
154	0x3fb0086bf4828537	0.0626285049388756
155	0x3fdaa6470b31dd45	0.4163987740825699
156	0x3fb85c5b9a5b4bd8	0.09515926855537715
157	0x3fdbb4c10c2654ee	0.4329073542260876
158	0xbfe030a384175b27	-0.5059373454958845
159	0x3fe08fcb1db3dd29	0.5175529079560067
160	0xbfb6012e78784778	-0.08595552865179268
161	0x3fe035f8ee53cfcb	0.5065884260970902
162	0xbf8fdd3fce01cbe5	-0.015558718180022477
163	0x3fddd589539a60e0	0.466158229487986
164	0xbfd353c16c51f2cf	-0.30198703363548146
165	0x3fdfb7cd9377f1fe	0.4955934467432427
166	0x3f92b7b6ecc45f6b	0.01827894039260462
167	0x3fdd55a625dd3cf1	0.45835260102917547
168	0xbfd657578ff21457	-0.3490809350699399
169	0x3fe00a1c12ce3fbd	0.5012340895937012
170	0x3fae2850408fbb29	0.05890131748298295
171	0x3fdd0e1a39537051	0.45398574445949175
172	0xbfce00abdbf58dab	-0.23439548721499412
173	0x3fe0b38873791d6a	0.5219156508764347
174	0xbfd191e70f0b6257	-0.27453018635927634
175	0x3fe0e1cbf8d2266b	0.5275630817206552
176	0xbfdb754d0e05f216	-0.429034484571987
177	0x3fe15b27123b7d09	0.5423770290471178
178	0xbfddc178bfc28c90	-0.46493357397611934
179	0x3fe116fd9cf13711	0.5340564790037395
180	0x3fb90f2ea42f624e	0.09788791187691823
181	0x3fde765b95e96ff1	0.4759739841445017
182	0xbf97dec97dd46b89	-0.023310802750625057
183	0x3fe1bd3420c36150	0.5543461456209489
184	0xbfc82d8fef830100	-0.18889044947537315
185	0x3fe086e24934200c	0.5164653234251104
186	0xbfd4ac709956776c	-0.32302489256277656
187	0x3fe129aeae46fa99	0.5363381770947228
188	0xbfc25bdf5e8b3fd1	-0.1434287273063988
189	0x3fe11b92eb52d614	0.5346159549869207
190	0x3fc3d48b53b1c2d1	0.15492383562697978
191	0x3fde20d2d8f6e46f	0.47075339496547647
192	0xbfc606f4d133293a	-0.17208728995167083
193	0x3fe1c8765eb9fdad	0.555720505726574
194	0xbfcf05a7cf0b9a41	-0.24236009225497138
195	0x3fe19580900557ba	0.5494997799785246
196	0x3f579cf6715b60a0	0.001441231409833356
197	0x3fe2649ea70db3e2	0.574782682682436
198	0xbfadc44a2778554e	-0.058138196294900454
199	0x3fe10c18afa9ff3e	0.5327266150415892
200	0x3fc86c5c8d0c390e	0.19080693137261345
201	0x3fdd856ea99e2849	0.4612690597938394
202	0xbfb8bf07e6485bd9	-0.0966648995603089
203	0x3fe1c37e30e50d14	0.5551138834929668
204	0xbfdf8f8a127961b3	-0.4931359463130562
205	0x3fe1e03afb1e8e1d	0.5586218743014261
206	0xbf9692d67009d97b	-0.02204451617077428
207	0x3fe315ad99111900	0.5963962544999788
208	0xbfd92c1d8e0e4a61	-0.39331759331358823
209	0x3fe1bad2a9045484	0.5540555287467588
210	0x3fa0ab8c394cb9b6	0.03255880546054206
211	0x3fe2aa9dfd1788d1	0.5833272879792962
212	0xbfb4b9bfefbcb955	-0.08095931628188187
213	0x3fe318abcb5adc5d	0.5967616054321173
214	0xbfdf3c1e3c6db6b9	-0.48804431821086386
215	0x3fe3423eba80a4b3	0.60183655191681
216	0x3fb0292b0046915d	0.0631281734154689
217	0x3fe1a8f6cf3aff19	0.5518755004377197
218	0xbfdd51ed252c6793	-0.4581253874799753
219	0x3fe27ff509780219	0.5781197724282406
220	0xbfcbbac756a6743e	-0.2166375325295195
221	0x3fe274f82f7361fc	0.5767785002490764
222	0x3fbc1d51f659312a	0.10982239021649734
223	0x3fe1bc9583ea9b2a	0.5542705132000709
224	0xbfc69eb211f867de	-0.17671800496537932
225	0x3fe2c442e71aaff1	0.5864576829676463
226	0xbfd2ccf6bf4212b0	-0.2937600009684429
227	0x3fe329dfc0073359	0.598861575179039
228	0x3fcb295c125eb64c	0.21219969651194714
229	0x3fe0bae0cfe985a6	0.52281227691508
230	0x3fbe427125a55ef4	0.1182013241681224
231	0x3fe2a781c53e1a63	0.5829476215738619
232	0x3fb5492388cb3d9a	0.08314725961394345
233	0x3fe3e33a14410619	0.6214876552186893
234	0xbfceb4380f9ec460	-0.2398748470564298
235	0x3fe35d7d01cec89a	0.6051621470744692
236	0x3fc2f55bb1d20978	0.14811273749007703
237	0x3fe20b0642999139	0.5638457585123781
238	0x3fc74b5ed485cce1	0.18198762299616703
239	0x3fe177647bdfecdf	0.5458242816379445
240	0x3f899a710745f0a5	0.01250160506673865
241	0x3fe3a09852a3f199	0.6133538831777968
242	0xbfb1a5422c89411f	-0.06892789447124813
243	0x3fe4795d588b975b	0.6398150185966459
244	0xbfba0f1404211d11	-0.10179257489027217
245	0x3fe3fce550c7f06b	0.6246210649255891
246	0xbfc3b3ce49d64f63	-0.15392473798112424
247	0x3fe3bf9f99be3b5e	0.6171415331644814
248	0xbf84a13b2fd51f72	-0.010073149106247323
249	0x3fe47035f9830cf4	0.6386976121215455
250	0xbfc84e6a92d52f01	-0.18989307565276906
251	0x3fe4ab28aff89d7c	0.6458934246956427
252	0xbfde1d5a4f5cb13d	-0.4705415511150653
253	0x3fe44754f701e295	0.6337075065958567
254	0x3fbaedc44e752513	0.10519053378552128
255	0x3fe4b9c004a23676	0.6476745691777086
